spy.pt (torch, 35136 bytes, 9 tensors)

fc1.weight f4 [50, 3]
000000 a4 8c 02 bf 6c be 0a 3e 6a fc 04 be 82 6a 67 be
       -0.5099585 0.13549203 -0.12986913 -0.22599223
000010 8a e6 2a be 08 cc dc 3d fe a6 0e bf 47 d0 fc 3e
       -0.16689506 0.107811034 -0.5572356 0.49377653
000020 25 dc d3 3e 90 66 89 3e 05 5c ae be 19 6d d2 3e
       0.41378894 0.2683606 -0.3405458 0.4109886
000030 71 88 c7 3d 81 a5 20 be d6 4f cb be ad b9 26 be
       0.09742821 -0.15688135 -0.39709347 -0.16281767
000040 68 82 e2 3d 55 63 60 3d ac de 2a be f4 8d d5 bd
       0.11060029 0.05478223 -0.16686505 -0.10427466
000050 c6 c1 64 be cf c2 8a bd 8e 82 31 3c d3 94 e9 be
       -0.22339544 -0.06775438 0.010834349 -0.45621356
000060 f4 d9 ba be 5e 01 a2 3e 80 b8 6e 3e 68 e0 64 be
       -0.3649441 0.31641668 0.23312569 -0.22351229
000070 65 7d 0c bf 8a c1 49 be 26 dd 35 be 91 db 06 bf
       -0.54878837 -0.19702736 -0.17760143 -0.5267878
000080 76 5b 04 3f 1b 31 c8 bd 10 95 ee 3c 69 7f 33 3c
       0.5170206 -0.09774991 0.029123813 0.01095567
000090 b8 f3 95 3d ab bb 0b be 05 b2 d1 bd c7 78 f6 be
       0.07321876 -0.13645808 -0.10239033 -0.4813902
0000a0 d6 6a af 3e 4e bf 0c 3f 70 a6 1e 3d 5c 06 be be
       0.34261197 0.5497941 0.038732946 -0.37114227
0000b0 88 ec e9 3d 81 0c 0d bf e6 a2 42 be 4c a4 1c be
       0.11422068 -0.55097204 -0.19007453 -0.1529705
0000c0 91 94 04 bf 0c 83 95 be d1 3a 87 be 5b 39 9a 3d
       -0.51789194 -0.29201543 -0.2641206 0.07530471
0000d0 fa f3 0e be 66 91 16 bc 90 d1 9b 3e 1b 8c c2 be
       -0.13960257 -0.009189939 0.3043332 -0.37997517
0000e0 f0 6e bf be b5 d9 89 be aa b5 5e 3e c0 16 46 bf
       -0.37389326 -0.2692391 0.21748987 -0.77378464
0000f0 70 73 9f be 01 de f6 be c0 53 f2 bc 4e b2 75 bd
       -0.3114276 -0.4821625 -0.02958095 -0.059984498
000100 f9 64 9e bb 22 98 0b be d4 dd 35 be 90 9c 17 bd
       -0.004833814 -0.13632253 -0.17760402 -0.037014544
000110 38 e0 ff bd 23 f0 1b 3e a3 76 5b 3f f5 7e 89 bc
       -0.12493938 0.15228324 0.857279 -0.01678417
000120 cf aa f4 3e d1 81 0c bf 0e f1 b4 3e 12 fb 95 be
       0.47786567 -0.54885584 0.3534016 -0.29293114
000130 23 6a 62 3e ae fa e9 3e 0b ac 81 3c 8a 92 95 bd
       0.221108 0.45699066 0.015829107 -0.07303341
000140 ce dd 85 be 23 80 02 bf 7c ce c1 bd 5e e9 e6 be
       -0.26145786 -0.5097677 -0.09463212 -0.4509992
000150 8c 83 12 bf 74 21 dc be 02 96 1f be d0 31 e1 be
       -0.57231975 -0.42994273 -0.15584567 -0.43983316
000160 fb d5 d7 be 96 70 b2 be c8 4e 44 be 32 2b 08 3e
       -0.42155442 -0.3485152 -0.19170678 0.13297728
000170 19 be 41 3e 76 e8 1a 3f 31 a6 41 3f 1c e4 a8 be
       0.18920173 0.6051096 0.7564421 -0.32986534
000180 84 3a 6c be 3e db 28 be 4c 81 0f 3e 0f d0 08 be
       -0.23069197 -0.16489884 0.14014167 -0.13360618
000190 cc 98 70 3d d9 11 f1 3e 0a f7 ae be a0 ac 33 3e
       0.05873947 0.4708393 -0.3417285 0.1754632
0001a0 98 67 a9 bd 97 23 bf be cd 66 9c 3e e0 5f 00 3f
       -0.08271712 -0.3733184 0.3054718 0.50146294
0001b0 15 c6 89 be ca ee 80 be a8 cd b2 3d 14 fa 9b be
       -0.26908937 -0.25182182 0.08730632 -0.30464232
0001c0 a1 47 69 3e 2b 2e fd be 25 3c c7 3e a4 28 e7 be
       0.2278123 -0.49449286 0.38913074 -0.45148194
0001d0 cc 2a f2 be 84 f3 8f be fc 78 66 3e 7a 5d c7 3e
       -0.47298276 -0.28115475 0.2250709 0.38938504
0001e0 55 e2 b0 be e2 7e 96 3e 63 05 cd 3e 38 66 5b 3e
       -0.34547678 0.2939368 0.40043172 0.21425712
0001f0 be e2 d5 be 5e 66 b8 be 06 ee 53 be 54 e8 1e 3e
       -0.41774553 -0.360156 -0.20696267 0.15518314
000200 30 65 c7 3e 99 91 45 bd 63 c8 c5 bc aa c1 8d 3d
       0.38944387 -0.048234556 -0.024143403 0.06921704
000210 d3 ed 8b be d0 cb 72 3d 14 70 a3 be 69 08 59 3e
       -0.27329883 0.059276402 -0.31921446 0.21194614
000220 5b 66 8e be 48 53 27 be bd 2d 0a bf 32 08 fa 3e
       -0.27812466 -0.16340363 -0.5397604 0.48834378
000230 a2 73 09 3f 46 86 69 be 01 65 2e 3e 88 41 d1 bc
       0.53692067 -0.22805128 0.17030717 -0.025543943
000240 f0 ce e7 3b e5 e7 46 bd 05 9e f0 bd 37 fe f0 be
       0.0070742294 -0.048560996 -0.1174889 -0.4706895
000250 7b d6 cb 3e 1f 84 af bd
       0.39812073 -0.08570122

fc1.bias f4 [50]
000000 a0 72 fe 3c 7c 08 62 3e 45 d8 cb 3e 5b 0f bf 3e
       0.031060517 0.22073549 0.39813438 0.37316403
000010 7a 4d 2c be f9 82 59 bf c0 55 8b bd 58 0b 08 be
       -0.1682643 -0.84965473 -0.06803465 -0.13285577
000020 81 0e d9 be b0 8d f6 3e 60 ff a2 be ca d5 bb be
       -0.42393878 0.48154974 -0.3183546 -0.36686546
000030 a5 ef 6f be 96 57 db be d6 8a a7 be 94 12 ad be
       -0.23431261 -0.4284026 -0.3272311 -0.33803236
000040 e8 62 a9 bd 4e a1 a1 be 0b d9 83 3e c4 c2 d5 be
       -0.08270818 -0.31568378 0.25751528 -0.41750157
000050 7e 25 d6 3e 4d 43 1e bf 8a 8c 80 be 0d 2f c6 bd
       0.4182548 -0.6182144 -0.25107223 -0.09676943
000060 ee 88 dc bd 29 de fa 3d d7 c4 7f bf 69 69 c8 be
       -0.10768305 0.12249405 -0.9990973 -0.39142922
000070 90 fb 19 be a0 b5 ff 3e b0 95 1f bf 57 3f df 3e
       -0.1503737 0.49943256 -0.6233778 0.43603012
000080 02 f2 a3 3e eb a5 30 3e c8 f0 fa 3e 22 c1 8b 3e
       0.32020575 0.17250793 0.49011827 0.27295786
000090 72 a7 5d be 26 6b da be dd 31 10 3c cb 2e 0e bf
       -0.21645907 -0.42659873 0.008800951 -0.5554015
0000a0 5f db 85 3d 04 30 4e 3e 53 64 b2 bd c6 b9 d3 be
       0.06535982 0.20135504 -0.087105416 -0.4135267
0000b0 18 3d f3 3d ce b8 b9 be 5d 50 ab 3c f3 21 18 bf
       0.11876887 -0.36273807 0.020912344 -0.594268
0000c0 9a 11 d8 3d 96 ff 2e bb
       0.10550232 -0.0026702634

fc2.weight f4 [50, 50]
000000 05 b2 18 3f b7 90 bb 3f 2e bc 87 be c3 ae e7 3e
       0.59646636 1.4653538 -0.26510757 0.4525052
000010 81 68 05 bf a1 ca 62 3f 76 d0 d7 be 3d ae 99 3f
       -0.52112585 0.8859044 -0.4215123 1.2006298
000020 01 1e 01 3f 57 f8 08 40 6a f7 aa 3e d1 ae c1 3f
       0.5043641 2.1401575 0.33391887 1.5131475
000030 84 b2 1c 3f d8 e9 df 3f 7c 1f f6 be 51 dc e5 3e
       0.61209893 1.7493238 -0.48070896 0.4489465
000040 73 b4 56 bc 21 df de 3e c9 ec 45 3f 88 d2 c4 be
       -0.013104546 0.4352961 0.7731443 -0.38441873
000050 eb 3a f2 3e ae 2b a2 3f 0e 78 cf be db 26 3b bd
       0.47310576 1.266958 -0.40521282 -0.045691352
000060 ce 7e 80 be 1c 1b 20 3f 56 4c 22 3f 36 ed 1a bf
       -0.25096744 0.62541366 0.6339773 -0.60518205
000070 e3 c8 cf be 89 b3 0d 3f 84 d7 91 3e 80 42 bf bd
       -0.40582952 0.55352074 0.28484738 -0.09338856
000080 b1 df be bd 72 56 37 bf 3f 61 4d 3c f4 a2 da be
       -0.093200095 -0.7161628 0.012535392 -0.42702448
000090 f5 84 a6 3f 54 5a a8 3e bb 8d 61 3e 2e c3 82 be
       1.3009325 0.32881415 0.22026722 -0.25539535
0000a0 c0 6d 83 3f 2e 06 cb bd 26 ce fb 3e b7 c2 e9 3e
       1.0267868 -0.09913288 0.49180716 0.45656368
0000b0 6d 55 dd 3e e1 b7 13 bf 2d 89 94 3f fd 0b 2d 3f
       0.43229237 -0.5770245 1.1604363 0.6759642
0000c0 6f eb 75 3e 6e d5 70 bf 3d 91 a0 be b7 00 b4 bd
       0.24015592 -0.9407567 -0.31360808 -0.08789199
0000d0 31 78 5c bf e5 d9 02 bf 72 0b ba 3f 60 6a c7 3e
       -0.861209 -0.5111373 1.4534743 0.38948345
0000e0 91 72 65 be ff 99 40 3f a6 0c 64 3f d6 4e e6 3e
       -0.22406985 0.7523498 0.890818 0.44982022
0000f0 e2 93 45 be 33 0f 4b be 11 1f 9a 3e 38 89 7e 3f
       -0.19294694 -0.19830017 0.30101827 0.9942813
000100 82 8f 0b 3f 65 52 40 3f f8 7b 5e be c9 97 e4 be
       0.5451585 0.75125724 -0.21726978 -0.44647053
000110 86 09 8f 3e 3e a6 58 be 58 0a 8d be 41 85 8a bf
       0.27936953 -0.21157166 -0.27546954 -1.0821916
000120 26 63 78 be cf 1b 17 be bb 1a 4b 3e ff f0 6c 3f
       -0.24256572 -0.14756702 0.19834416 0.9255523
000130 e5 af 26 bf db 30 6f bf ec a5 45 bf e0 dd 91 3f
       -0.65112144 -0.9343392 -0.772063 1.1395836
000140 07 25 6a 3f 9e 53 af bd 15 c1 28 bf de 2a 29 3f
       0.9146275 -0.085608706 -0.6591962 0.66081035
000150 57 00 dc 3f 53 97 93 be 7d 36 2d bf 2d 39 bf 3f
       1.7187604 -0.2882639 -0.6766127 1.4939324
000160 e8 5e 92 bf 83 e4 a2 be d4 8a ba be 3d 7f df 3e
       -1.1435213 -0.31814966 -0.36434042 0.43651763
000170 a5 87 8d be 6c fb fd bd b8 bd a8 bb 9b 42 ec be
       -0.2764255 -0.124014705 -0.0051495694 -0.46144566
000180 81 1e ad 3f 39 11 87 3f 09 d4 1a bf e4 3b 03 bf
       1.3524934 1.0552131 -0.6047979 -0.5126326
000190 92 53 c8 3f fc 73 83 3e 73 ea 1f 3e 64 53 5a 3f
       1.5650504 0.25674427 0.15616779 0.85283494
0001a0 3b 37 64 3e e1 75 52 3f d8 86 8d 3c 20 49 3b 3f
       0.22286694 0.8221112 0.017276213 0.73158455
0001b0 46 6c 7c be cf 04 18 bc d6 af a1 3e 52 02 89 3f
       -0.24650678 -0.00927849 0.31579465 1.0703833
0001c0 a3 39 61 bf 71 26 1d 3e b1 79 02 3f 0f 5f 82 3f
       -0.8797857 0.15346695 0.50966936 1.018526
0001d0 91 de 81 3b 8e c3 c3 be 35 d2 d1 3f 51 22 10 3e
       0.0039632996 -0.38235134 1.6392275 0.1407559
0001e0 17 fc 49 3f 4c 47 a8 bd d4 e3 77 3e d7 54 e6 bd
       0.78900284 -0.08216724 0.24208003 -0.11246651
0001f0 b4 ee da 3d ce 8f 43 3e f3 bf 00 bf 6e f8 2d bf
       0.1069006 0.19097826 -0.5029289 -0.679572
000200 f1 4f 85 3e 7e fb 3a be fb 89 0f 3e 02 89 b2 bd
       0.26037553 -0.18259999 0.14017479 -0.087175384
000210 0d 0d 9b 3e ad 7a 33 3e 2a d5 d7 3f 16 b8 0b 3f
       0.30283394 0.17527266 1.6861928 0.5457777
000220 f0 3c e0 bd 97 9f a6 bc 71 4a cb 3f 55 52 2b 3f
       -0.10949123 -0.02033977 1.5882093 0.66922504
000230 d9 79 2e 3f 41 79 ab bc ee e8 3d 3f 83 a1 6a bf
       0.68154675 -0.020931842 0.7418355 -0.916527
000240 76 e1 7e be e9 82 d8 be ee 7c 23 3f 7f 12 af 3e
       -0.24890694 -0.42287377 0.638625 0.341938
000250 68 75 1a be 11 83 5e bf d5 ef 30 3f 53 50 d1 3f
       -0.1508385 -0.8691874 0.69115955 1.6352638
000260 b4 30 d8 be 4b 16 c9 3e 0e 14 f3 bd d7 2a 85 3f
       -0.42224658 0.3927482 -0.118690595 1.0403699
000270 13 50 17 3f 71 c5 1b 3e d5 e8 22 3f 36 a2 f8 3e
       0.5910656 0.15212037 0.63636523 0.48561257
000280 7c 51 2a bf 71 a6 32 3f c8 cb dc 3c 83 7f 83 3e
       -0.66530585 0.6978522 0.02695264 0.2568322
000290 5f f7 a2 bd de 48 b9 bd e3 be e3 3d 0a bf 6c be
       -0.079573385 -0.090471014 0.11120393 -0.2311975
0002a0 c3 a9 1b 3e 00 21 9c be cc c1 ad 3f cb b8 99 3e
       0.15201478 -0.30493927 1.3574767 0.30023798
0002b0 85 36 f0 3e 56 de d2 bd 4a 4c 0e bf 6d c1 c9 be
       0.46916595 -0.102963135 -0.5558516 -0.39405385
0002c0 7a e5 04 3d e8 d4 88 3e 3b de d5 3e f3 7f 8e 3f
       0.03244541 0.26724935 0.4177111 1.1132797
0002d0 ba 52 67 3e 6f d3 04 be 38 f1 a2 3f 38 8e 86 3f
       0.22590151 -0.1297128 1.2729864 1.0512152
0002e0 7f 63 7a 3e cf dc e0 bd 13 2e 71 be a8 93 80 be
       0.24452017 -0.10979616 -0.23552732 -0.25112653
0002f0 4b cc fc be d5 0e 03 3f 48 11 99 3e 0d 04 04 3f
       -0.49374613 0.51194507 0.29895997 0.5156868
000300 f2 a1 f7 3e 67 8b 77 be 42 7a a6 be 66 1e 18 3f
       0.48365742 -0.24174272 -0.3251515 0.59421384
000310 81 d7 f9 3e d5 79 08 3f 78 5c 28 3f 07 d8 db be
       0.4879723 0.533109 0.65766096 -0.42938253
000320 8a 3e fc bd 1b 3c 59 3f 0f 00 90 3f 2c 71 de 3e
       -0.12316616 0.8485734 1.1250018 0.43445718
000330 4a 76 67 3f 72 85 20 bf dd b6 6f bf 6d 6d a6 3f
       0.9041487 -0.6270362 -0.936384 1.3002144
000340 40 59 a6 3e 8a 3e 0d be 63 95 dd be 44 c7 d6 be
       0.32489967 -0.13793388 -0.43278036 -0.41948903
000350 88 84 c3 3c 3b 51 80 3d 8c bb 9f 3f 3c 42 b4 be
       0.023866907 0.062654935 1.247911 -0.35206783
000360 0c d7 ca be 01 0b 0b bf 50 1d 30 3e 5a b6 3a 3e
       -0.39617193 -0.54313666 0.17198682 0.18233624
000370 d9 95 2b 3c 4e 45 88 3f f0 9c d2 3e bd d7 3c bd
       0.010472738 1.064615 0.4113536 -0.04610418
000380 61 45 69 bd 38 ec 81 3f ee f4 bc 3f 6a 57 6d 3f
       -0.05695093 1.0150213 1.4762247 0.9271151
000390 ac 3b 05 be 4f 47 e0 3f 39 a9 60 bf cc 90 18 be
       -0.13011044 1.7521762 -0.87758213 -0.14898986
0003a0 4e 72 b1 bd 02 02 56 3f 12 8e 50 3f 19 5e d5 be
       -0.0866438 0.83596814 0.8146678 -0.41673353
0003b0 fa 85 2c bf c9 4e c1 3e 19 8e d4 bd 9c d8 43 3f
       -0.6739193 0.3775542 -0.103786655 0.76502395
0003c0 c5 be 77 bf 57 ec 73 3f 1a 07 95 be f2 a2 9d 3d
       -0.96775466 0.952825 -0.2910698 0.07697095
0003d0 d5 31 23 3f d6 f2 24 3f d7 53 41 3f 51 3d 3c 3f
       0.6374791 0.6443304 0.75518554 0.7353106
0003e0 26 9c 6f 3f d5 58 2b bf 6b 4d 28 3f ab bd 1d be
       0.9359764 -0.6693242 0.6574313 -0.15404384
0003f0 73 df 8e bf 92 ac c7 3e 4b ba 07 3f 33 c7 9c 3f
       -1.1161941 0.38998848 0.53018636 1.2248291

fc2.bias f4 [50]
000000 9b 71 32 bf e3 b1 c1 be d4 e9 37 bf 1e 19 84 bf
       -0.697046 -0.3783103 -0.7184117 -1.0320165
000010 c1 fc 0a bf 6c 2e 6b be c0 3a 3a bf bd 93 7e bf
       -0.5429192 -0.22966927 -0.72745895 -0.9944418
000020 9e 25 84 bf 06 8e 3a bf 54 d8 83 bf f6 aa 49 bf
       -1.032398 -0.7287296 -1.0300393 -0.7877649
000030 41 29 2c bf 04 e7 c0 be 95 ed 98 bf d9 00 6f bf
       -0.6725045 -0.3767625 -1.1947504 -0.9336067
000040 de 02 4d bf f9 6e 4d bf 9e 49 32 bf fc 73 5d bf
       -0.800825 -0.80247456 -0.6964358 -0.86505103
000050 17 b9 83 bf ae d8 57 bf b5 7d 17 bf b4 9d 7b bf
       -1.029086 -0.84315 -0.5917619 -0.9828751
000060 0a f4 5b bf 52 9f ad be 95 42 2b bf 21 72 c5 be
       -0.8591925 -0.33910614 -0.6689847 -0.38563636
000070 a0 3f e4 be a4 b6 6b bf c2 1c fa be 56 a1 75 bf
       -0.44579792 -0.9207556 -0.48850065 -0.95949304
000080 91 5f 13 bf 17 82 25 bf 27 e0 79 bf cb 57 49 bf
       -0.575677 -0.64651626 -0.97607654 -0.78649586
000090 b2 f9 10 bf 5c 1c 9a be 0a 56 59 bf f2 b6 dd be
       -0.56631005 -0.3009976 -0.8489691 -0.4330364
0000a0 05 df 71 bf c9 0c da be fd c7 65 bf 83 06 94 be
       -0.94480926 -0.4258788 -0.8975828 -0.28911218
0000b0 77 0c 8c bf 95 2d 5f bf 61 6c 19 bf 50 df 60 bf
       -1.0941304 -0.8717893 -0.59931 -0.8784075
0000c0 cd 0e 42 bf 34 30 d4 be
       -0.75803834 -0.41443026

fc3.weight f4 [50, 50]
000000 8a ce 4b 3c ac 39 51 bd bd dc 0c bd d3 80 10 be
       0.0124393795 -0.05108039 -0.0343902 -0.14111643
000010 43 97 50 bd a2 cf 2d 3d 65 b5 86 bd 68 59 ae bd
       -0.050925504 0.042434342 -0.06577567 -0.08513147
000020 93 f0 b0 bc d4 f6 1b bd 19 dc 1b bc 77 80 95 bd
       -0.02159909 -0.03807719 -0.009512925 -0.07299893
000030 ab 07 79 bd 8a 61 11 3c c4 7a 6e 3e 65 50 c6 3d
       -0.06079833 0.008873353 0.23289019 0.09683303
000040 5c 6e 95 3e ac 76 e6 3d 62 95 39 3d c1 d2 14 bd
       0.2918576 0.112531036 0.04530848 -0.036333803
000050 3f ae a1 bc 7f 21 02 be 34 1d 6b bc e1 20 47 3b
       -0.019736407 -0.1270809 -0.014350224 0.0030384588
000060 b3 87 47 3c 5c 42 6b bc ef 88 29 be 07 36 fa 3d
       0.012178349 -0.014359083 -0.16556142 0.12217336
000070 91 da 8b bd 87 4e af bd 8d 9e dc 3c 46 08 93 bc
       -0.068287976 -0.085599 0.026931072 -0.017948281
000080 a7 28 52 bd ad 5a ea 3c f3 78 0f 3d 3d 80 77 3d
       -0.0513083 0.02860769 0.035027456 0.060425032
000090 0e b3 93 3d c4 69 1f bd 01 b8 1a bd 3d e5 a3 bd
       0.07211886 -0.038919225 -0.037773136 -0.08002708
0000a0 fa fe 22 3e 27 97 5b 3c a2 d9 d0 3d 2d eb aa bd
       0.15917578 0.013402737 0.1019776 -0.083456375
0000b0 37 1c 5c 3c b5 5d 07 bd d4 9d b2 bd a7 20 49 bd
       0.013434461 -0.03304835 -0.087215096 -0.049103405
0000c0 66 ce a8 3d 8e b1 73 bd 58 9a 1c bc ee 90 43 bd
       0.082424924 -0.0594955 -0.009558283 -0.047745638
0000d0 57 b0 89 bd a0 19 b8 39 6f 92 3d 3d 0e 6d e1 bd
       -0.06723087 0.00035114307 0.046282228 -0.11007129
0000e0 18 16 c5 bd 31 2b 4d bc ac db cf 3c cf 3d 0a bd
       -0.09623355 -0.012522505 0.025373302 -0.03375035
0000f0 94 5f bb bd ee e6 10 bd 7f 30 0d 3d 76 51 2c bd
       -0.091490895 -0.03537648 0.034470078 -0.042069875
000100 42 82 d8 bc d9 65 e9 3c d5 5b 2a 3d 3a ff f8 3d
       -0.0264293 0.028490948 0.041591484 0.121580556
000110 5f 36 fe 3c 9e 5e cf bc e8 62 4b 3d 3b b4 d1 bd
       0.031031786 -0.025313672 0.04965487 -0.10239454
000120 10 7d 38 3e cd 5d a3 3d e8 8c 85 3d 7f 8f 9b bd
       0.18016458 0.079768755 0.06521016 -0.07595729
000130 4d 3d d7 bc 06 2b 35 3b 45 f7 c1 bd 1a a0 33 3d
       -0.026274348 0.0027644052 -0.09470991 0.043853857
000140 1b f1 07 3c 5d 64 90 bd 0a d8 dd 3d d0 8a 1d bd
       0.00829723 -0.07050393 0.10832222 -0.03846246
000150 8c b9 11 3e 5d 52 36 bc ec 8f 49 bd d7 61 ba 3d
       0.14230937 -0.011128035 -0.04920952 0.09100693
000160 5c c8 95 bc 59 3e fb 3d ce 01 8f 3d 71 51 be 3b
       -0.018284015 0.12267751 0.06982766 0.0058080484
000170 ca cb 8a bd eb e5 18 bd fb 19 6c bd 4f 8e 8e bc
       -0.06777151 -0.03732864 -0.057641964 -0.017401842
000180 0e 43 0c be a4 8f bf bd 91 20 09 bc 07 f0 bf bd
       -0.13697454 -0.09353569 -0.008369581 -0.093719535
000190 2b c9 9f 3d 9c 41 c6 3d 90 c8 b2 3c 20 14 32 bd
       0.078020416 0.09680483 0.021824151 -0.043476224
0001a0 c9 19 e2 bd 98 ab 10 3d 31 13 12 bd 6c 28 7c bd
       -0.110400744 0.035319895 -0.035662834 -0.061561987
0001b0 5e 2c ca bd ab d0 c2 bc fd ba ad bc ad 7c 71 bd
       -0.098717436 -0.023781141 -0.021207327 -0.05895679
0001c0 d5 21 b3 3d dd 30 d8 bc 3c 92 ff bd 48 69 05 3e
       0.08746687 -0.026390487 -0.12479064 0.13028443
0001d0 f3 1a 4c 3c 51 96 04 bd 3f 49 92 3c 26 c3 86 3b
       0.012457597 -0.032369915 0.017857192 0.004112619
0001e0 05 aa c7 bd 1c 1c 5b bc 1a 30 8c 3d 43 ce 19 be
       -0.097492255 -0.013373401 0.06845112 -0.15020089
0001f0 e5 e6 a7 bd c9 65 c3 3d 3e 69 79 3c 3b d5 ea 3c
       -0.081983365 0.09540898 0.015222846 0.02866613
000200 0b 3e 52 3d 78 96 98 3d 20 6c 02 3e dd 83 5d bd
       0.0513287 0.07450575 0.12736559 -0.054080833
000210 00 b1 5e bd ff 7f ea bc 18 6f 19 bd 9c 59 84 3d
       -0.05436802 -0.028625486 -0.037459463 0.06462404
000220 d2 39 da bc e2 6d d5 bc c2 63 4c 3d 50 77 ab bb
       -0.026638899 -0.026053373 0.049899824 -0.005232729
000230 d8 31 b1 3c 7e 90 80 bc ee a3 f4 bd 35 c1 22 3c
       0.021630213 -0.0156939 -0.119453296 0.009933759
000240 5e 58 af bd ee 0c af 3d 0e 1f ad bd 64 11 50 bd
       -0.085617766 0.08547388 -0.08453189 -0.050797835
000250 31 42 c5 bc 23 7f 15 bd 29 fb 39 3d 33 15 2b bc
       -0.024079414 -0.0364982 0.04540554 -0.010442066
000260 dc f7 0b bd 05 3c d8 ba 1b a1 f6 3d 89 d0 bf 3c
       -0.034171924 -0.0016497379 0.12042447 0.023414867
000270 d9 a2 ef bc 74 46 4c 3d d2 e1 15 3e 0d 91 63 bd
       -0.029252457 0.049871877 0.14636925 -0.055558253
000280 c3 73 63 3d 82 00 1e 3d ac 58 3e 3d aa 93 5a 3d
       0.05553032 0.038574703 0.046471283 0.05336348
000290 cb 61 9f 3b f0 4f e3 bc 75 0c 49 3d 83 7e 16 3d
       0.0048639528 -0.027748078 0.049084146 0.036741745
0002a0 58 57 65 be db 4c ed bd 13 70 e3 3c 8b e5 60 bc
       -0.223966 -0.11586925 0.027763402 -0.013726602
0002b0 e1 94 31 bc 9f 24 fe ba 10 1a 3a be 9c 52 06 bd
       -0.010838718 -0.0019389576 -0.18174005 -0.032793626
0002c0 52 1f 22 3d d3 41 50 bc fc 82 ff bd df a9 81 bc
       0.03958065 -0.012711006 -0.12476155 -0.015828071
0002d0 c3 c4 ae 3d 99 2f 7b 3c a1 1d 17 be 11 3c b8 bc
       0.08533623 0.015331172 -0.14757396 -0.02248958
0002e0 cd e3 99 3d 57 d2 83 bd b4 5d 0f 3c 2d 3a fc bd
       0.07514153 -0.064366035 0.008750368 -0.12315784
0002f0 46 a0 2e 3c 4b 98 dc 3d 8f 62 66 bd 8c 9c b1 3d
       0.010658329 0.10771235 -0.056246337 0.08672437
000300 83 6e 4b 3e 14 7b 53 b9 19 74 fa 3c dc 1d 3c 3e
       0.19866376 -0.00020168378 0.030572938 0.18370765
000310 75 36 0a 3d e3 e8 00 be 07 f2 6e 3d 2d 39 7c be
       0.03374334 -0.12588839 0.058336284 -0.24631186
000320 db 72 f9 3c 47 ae 17 be bb d0 de 3d fd 10 2e bd
       0.030450275 -0.14812575 0.10879656 -0.04249667
000330 87 b5 c5 bd 18 b5 d4 bd 18 84 8d bc 89 9e 0a 3b
       -0.09653764 -0.103861034 -0.017274901 0.0021151623
000340 30 85 57 bd e7 5f 6f 3d af 5c c5 bd c6 92 96 bd
       -0.052617252 0.05844107 -0.096368186 -0.073522136
000350 e1 eb 22 3e 62 7e a4 bb 72 06 f0 bc 18 7d b3 bd
       0.15910293 -0.005019949 -0.029299948 -0.08764094
000360 95 cb cd 3d 8d 27 fd bd a6 92 a2 bd 96 aa 31 3b
       0.10048596 -0.12361059 -0.07938127 0.0027109734
000370 12 d3 a3 3d 55 fc c2 bb 94 43 36 3d 35 00 78 3d
       0.07999243 -0.0059504905 0.04449804 0.060547072
000380 76 8d 66 bc 87 db 72 bd 88 2e 0a 3e 83 ed 6f 3d
       -0.014071813 -0.05929139 0.13494313 0.05857612
000390 ae 7e fc bd 49 b7 56 be d8 36 d6 3d b5 fa 13 bd
       -0.1232885 -0.20968355 0.10459679 -0.036127765
0003a0 fd 9a 3e be 28 71 fe 3c d6 f7 a4 bd 4d b2 b3 bd
       -0.18613811 0.031059816 -0.080550835 -0.087742426
0003b0 dd 21 c6 3d 89 97 28 3d 8f 3d 71 bd 8e e3 01 bc
       0.09674428 0.04116014 -0.058896597 -0.007927788
0003c0 8e 48 36 bc e5 b8 b5 bd e5 ec b5 3d dc 4b bb bc
       -0.011125697 -0.088731565 0.08883075 -0.022863321
0003d0 ee 09 ec 3d 17 84 fe 3b 03 6d 41 bd 11 ff 4b 3d
       0.115253314 0.007767211 -0.047223102 0.049803797
0003e0 fe a4 7b 3d 63 68 01 3c f0 a7 66 3c aa 3d 2a be
       0.061436646 0.007898423 0.014078125 -0.16625085
0003f0 c7 e8 6c bd c9 ad 08 be cf b0 b4 bd 70 7f 40 3d
       -0.05783918 -0.13347544 -0.08822786 0.046996534

fc3.bias f4 [50]
000000 6a f0 a8 be e7 84 c6 be fa 1e fc be 1b 7e b9 be
       -0.3299592 -0.3877327 -0.49242383 -0.36229023
000010 4a 0f a2 be 3d c0 c4 be 19 b7 04 bf 01 a2 aa be
       -0.3165229 -0.38427916 -0.51841885 -0.33326724
000020 9a 01 a6 be d9 7e f5 be 93 18 cd be 7a 8e cc be
       -0.32423097 -0.4794834 -0.4005781 -0.3995245
000030 98 f5 c9 be 5d b5 d9 be 4c 7e 87 be cc 37 93 be
       -0.39445186 -0.42521182 -0.26463544 -0.28753507
000040 a4 44 a1 be a5 9d ce be b6 39 a5 be 27 f5 bd be
       -0.3149768 -0.40354648 -0.32270592 -0.371011
000050 45 a1 c9 be 4c 29 c9 be 27 69 dd be 76 44 d3 be
       -0.3938085 -0.3928932 -0.43244287 -0.4126317
000060 e2 34 41 be 42 00 e9 be de e9 e7 be 86 52 7a be
       -0.1886783 -0.4550801 -0.45295614 -0.24445543
000070 53 06 8f be 7c 1e 79 be dd a1 02 bf 1d 08 e3 be
       -0.27934512 -0.24328035 -0.51028234 -0.44342127
000080 6b b8 07 bf 5e cf e2 be d4 2d ad be 68 08 c3 be
       -0.53015774 -0.44298834 -0.33824027 -0.3809235
000090 98 0a 11 bf 63 9f 4c be 0e c3 9f be 82 6a 9f be
       -0.5665679 -0.19982676 -0.31203502 -0.31135947
0000a0 d4 7a b4 be 89 65 a9 be 61 08 df be 95 f2 92 be
       -0.3524996 -0.33085278 -0.4356108 -0.287007
0000b0 b3 6e ab be 00 68 05 bf cf f7 e7 be 1d 62 79 be
       -0.33482894 -0.52111816 -0.4530625 -0.24353833
0000c0 4d 73 82 be 37 e8 a5 be
       -0.25478593 -0.32403728

fc4.weight f4 [50, 50]
000000 f4 f9 e0 bc 21 77 eb 3b 98 e9 38 bc 55 ef 95 3c
       -0.027462937 0.007185832 -0.011286162 0.018302599
000010 fd a9 98 bc 18 f6 25 bd ef c6 2d 3c a9 7f a3 bc
       -0.018635744 -0.040517896 0.0106065115 -0.019958334
000020 09 27 11 bb fb b4 11 3c c4 af 89 bc 11 b1 88 3b
       -0.002214851 0.008893247 -0.016807444 0.0041714986
000030 e9 4c 09 3c 47 45 1e 3d 1e 20 41 3c 0f a8 7d 3c
       0.008380153 0.038640287 0.0117874425 0.015481963
000040 27 0f 80 3b 3a 24 a1 3b db 2a 56 3d 92 13 59 3d
       0.0039080563 0.0049176486 0.052286964 0.05299718
000050 2d a8 3e 3d fc 3f 34 3c e5 6f 33 bc d4 93 78 38
       0.046547104 0.011001583 -0.010951971 5.9265483e-05
000060 91 44 a0 3c 64 8d 61 bb d0 63 b2 bb d8 af b0 bc
       0.019563945 -0.003441655 -0.0054440275 -0.021568224
000070 25 94 1d 3c 3d 0a 4a 3d 63 14 29 bc 13 09 48 3c
       0.00961784 0.04932617 -0.010319802 0.012209195
000080 eb c0 a2 bc 0c 7f ff 3b 49 93 29 3c ba a7 34 3d
       -0.019867381 0.0077971276 0.010350057 0.04410527
000090 59 5f 25 3d 40 f2 6e 3c 07 fc 2c bc 7c 44 a3 3c
       0.040374134 0.014584124 -0.010558135 0.019930117
0000a0 bd c7 07 3d 0c 57 89 bd 7c 98 88 bc 26 b5 dc bd
       0.03314947 -0.06706056 -0.016674273 -0.10776739
0000b0 21 9e f8 3c 4b fd 8b bc 52 94 8e ba 61 45 85 bc
       0.03034884 -0.017088553 -0.0010877943 -0.016268434
0000c0 e0 e4 d9 3b de e3 66 3d 94 f9 a1 3c 22 bc ed bc
       0.0066495985 0.056369655 0.019772328 -0.029020373
0000d0 7d 9e 04 3b 3a 84 8d 3b 71 cd de bc e0 26 86 bb
       0.0020236068 0.004318741 -0.027197571 -0.0040939897
0000e0 d3 b1 29 bc 91 eb 1b bc 65 e0 c9 3c be f5 00 bd
       -0.010357338 -0.009516613 0.024643132 -0.031484358
0000f0 e9 67 39 bc 9f a4 5d 3d d8 d5 58 bb 31 5e db bb
       -0.011316278 0.054112073 -0.0033086445 -0.006694578
000100 92 9f db b8 39 09 1f 3c 0e 94 59 bd 0d f2 23 3d
       -0.00010472456 0.009706789 -0.05311971 0.04002576
000110 31 dd 58 3c 74 32 86 3b 56 55 01 bd 5f e2 4a bc
       0.01323633 0.00409537 -0.031575523 -0.012383073
000120 b7 01 8b bc 5f 36 cc ba ea 4f e8 3c c7 3e 10 bc
       -0.016968591 -0.0015580169 0.028358418 -0.00880403
000130 e0 57 cf bc d5 87 59 bd 5b 68 ba bc 0e 6c df 3b
       -0.025310457 -0.053108055 -0.022754839 0.006818301
000140 e2 10 bd bc f0 47 16 3c e4 6e 95 bc 68 78 68 bc
       -0.02307934 0.009172425 -0.018241353 -0.014188863
000150 a5 fa 97 bb 4b 8c 5e 3c 19 ea 85 bd 75 a6 55 bd
       -0.0046380335 0.013583253 -0.06538791 -0.0521607
000160 95 31 79 bc 74 c3 21 bc 1f 1d 92 3b e0 71 ab 3c
       -0.015209575 -0.00987326 0.004459038 0.020928323
000170 f2 43 02 ba ae d2 1e 3a c0 3c b0 bc aa c0 7d bd
       -0.0004969231 0.00060586154 -0.021513343 -0.061951317
000180 e4 d9 9b b9 35 ce 70 bb 8c a4 37 3c 61 e4 aa bc
       -0.00029726245 -0.0036744003 0.011208665 -0.020860853
000190 82 e7 ad bb 03 a5 77 bd cb a4 a3 bc a5 98 19 bc
       -0.005307139 -0.0604601 -0.01997604 -0.009374772
0001a0 7c 46 aa bc 41 0c ce 3c 76 8f 7a 3b fa ba 78 bc
       -0.020785563 0.025152327 0.0038232482 -0.015181297
0001b0 ae 2f 94 bc c2 a9 b1 3c 66 24 dd 3b d9 15 da bc
       -0.018089142 0.021687392 0.006748724 -0.026621746
0001c0 bb 21 13 bd d0 05 1d 3c db 83 11 3a 7a c4 65 bb
       -0.03592084 0.009583905 0.0005550959 -0.0035059736
0001d0 bc ff 5d 3c 09 14 9c 3c 2c 55 45 bd 95 29 01 bd
       0.013549741 0.019052522 -0.04817693 -0.031533796
0001e0 cc f1 c2 3c ec cf 70 3b 26 2c 1b 3b d0 f2 65 3d
       0.023796938 0.0036745025 0.0023677438 0.056139767
0001f0 9d 61 e2 ba d4 3d a1 3b fd 34 19 3d 1c 3e e0 3c
       -0.0017271523 0.0049207006 0.03740405 0.027373366
000200 36 0d 00 3c 2b 4c bc 3c 83 bb 56 bc 93 37 02 3d
       0.00781565 0.022985538 -0.01310623 0.03179128
000210 ea 43 65 3c 09 c6 d1 bc 3e bb cc bb 6c 46 03 bd
       0.013993243 -0.025607126 -0.006247907 -0.03204958
000220 a2 53 1a ba 80 74 ce bb 37 08 29 bd 6c d4 2a 3b
       -0.0005887096 -0.006300509 -0.0412676 0.0026066555
000230 1f ba 23 bc df da 1a bc 4a 97 56 3d ed 83 7a 3c
       -0.009993105 -0.009451597 0.052390374 0.015290243
000240 0c e7 b9 bc 87 0c 74 bc f7 b2 70 bd 0a fc cf 3c
       -0.02269318 -0.014895565 -0.058764424 0.025388736
000250 45 db d9 3a 95 ad ea 3b 64 69 8a 3d 38 d0 04 bc
       0.0016621134 0.007161806 0.06758383 -0.008106284
000260 4b 45 06 bd 48 73 48 bc 0d 4d 0d 3c 46 ed bc 3c
       -0.032780927 -0.012234516 0.008624327 0.02306236
000270 3e 2c 16 bc 93 47 d3 3b e2 90 62 3c 99 a8 77 bb
       -0.009165822 0.0064477413 0.013828488 -0.00377897
000280 d1 9e 3b 3b 1e 0e 16 3c fc 96 0c 3d 33 64 9c 3c
       0.0028628598 0.009158639 0.034323677 0.019090747
000290 b2 5a 5f 3d b4 0d 57 bd 4a 3d 8c 3a bf 51 4f 3c
       0.054529853 -0.052503303 0.0010699418 0.012653767
0002a0 d8 4d 58 3c 58 b8 6d 3c 72 39 19 3d b8 c7 70 3c
       0.013202153 0.014509283 0.0374083 0.014696054
0002b0 98 48 1a bd 0d d6 e3 3c 6c cc fb 3c a6 19 b5 bc
       -0.037666887 0.027812028 0.030737124 -0.022106957
0002c0 0e 5b 00 bd 2c fe a7 3c 4e 08 67 bd 3b c2 0c bd
       -0.031336837 0.02050694 -0.056404404 -0.03436492
0002d0 56 5b c0 3b 62 ed ec 3a b9 01 86 bb 7f dc 04 3c
       0.005870263 0.0018076117 -0.004089561 0.008109211
0002e0 99 78 90 bc 6a 98 3e bc e6 4c 12 bd c1 26 50 3c
       -0.01763563 -0.011633018 -0.035717867 0.012704552
0002f0 87 6c e9 3c 19 a4 f5 3b 6b bb 38 bd 24 54 dd 3b
       0.028494133 0.0074963686 -0.04510061 0.006754415
000300 91 89 bb bc 52 5a 07 3c 0c 19 aa 3c 6a 91 ae bc
       -0.022892745 0.00826128 0.020763896 -0.021309573
000310 14 8f f8 bb b9 80 35 3d 7e c5 03 bd 2a a9 4e b9
       -0.0075854156 0.044312213 -0.032170765 -0.0001970871
000320 aa b1 49 bd a6 3d c2 3b bb 39 d8 3c 79 f5 a8 3c
       -0.0492417 0.005927759 0.026394716 0.020624863
000330 3b 5e 7e bc bc 06 72 3b bc 21 39 bd 25 e0 60 3c
       -0.015525396 0.0036930284 -0.045198187 0.013725315
000340 89 cb d5 bb a9 f5 5a 3c 68 e4 ad 3c 67 03 8b ba
       -0.0065245074 0.013364234 0.021227077 -0.0010605872
000350 4e 38 59 3a f2 af 6a 3d ac 39 44 3c da 6b 0e 3c
       0.0008286283 0.0572967 0.011976641 0.008692706
000360 b6 5e dc bc 2e 1a b4 3c 78 ef cd bc 9f 67 9c bc
       -0.02690063 0.02198514 -0.025138602 -0.01909238
000370 88 a5 a6 3c 00 92 25 3d 2f b4 9a ba 19 63 d4 bb
       0.020342603 0.04042244 -0.0011802966 -0.00648154
000380 86 ff 3f bd c9 9e a8 3c e4 76 f6 ba 00 dc 7a 3c
       -0.046874546 0.020583527 -0.0018803743 0.015311241
000390 ac 98 af bc d3 a6 ae bc 60 e4 65 3c 8d 5d 51 3d
       -0.021435104 -0.021319782 0.0140315 0.051114608
0003a0 ec 3d ba 3c ac c8 f8 bb 38 98 1d 3c ea 0a 3d 3d
       0.022734605 -0.0075922813 0.009618811 0.046152987
0003b0 89 55 23 bd df 98 5a bd d0 f5 c5 bc b5 6c 51 3c
       -0.039876495 -0.053368445 -0.024165064 0.012782265
0003c0 6a 1c 51 bc f0 92 9f 3c 2b 21 4d 3d 80 e8 f7 3b
       -0.012763122 0.019479245 0.05008046 0.007565558
0003d0 24 61 19 bd 9d 87 83 3c ce 62 87 3b bf 07 ae bc
       -0.037446156 0.016055876 0.0041316515 -0.021243928
0003e0 7b da cf 3c 0e fb 3b 3c ea d5 67 3c bc bf b9 3b
       0.025372734 0.01147343 0.014150122 0.0056686085
0003f0 8a 73 6f 3b 88 be e7 bc 1b e2 88 ba a4 41 2a bd
       0.0036537373 -0.028289095 -0.0010443361 -0.041566506

fc4.bias f4 [50]
000000 58 a0 1e bc d9 6a e3 bc 7e 11 29 bb 1c 6b 11 3c
       -0.009681784 -0.02776091 -0.002579778 0.0088756345
000010 22 5f 90 bc bf 0a 0e bc 54 43 83 39 1f b9 92 bc
       -0.017623488 -0.008669554 0.0002503643 -0.017910538
000020 e5 be a0 bc 1c 4c a7 3b 8c 36 e8 bb f6 1a ed bc
       -0.019622276 0.0051055085 -0.0070865806 -0.02894352
000030 a4 ae 0d 3c cd 5c dc bc fa 95 3d bc 79 00 74 bb
       0.008647595 -0.02689972 -0.011571402 -0.0037231727
000040 7e e4 cd ba a8 47 0f ba 1e 6d 85 bc 25 1f de bc
       -0.0015708355 -0.00054656947 -0.016287383 -0.02711446
000050 e5 fc 03 bc 70 9e 79 bc 04 ba d0 bb 57 0a 7b bc
       -0.0080559 -0.015235528 -0.006369831 -0.015322289
000060 73 a6 86 bc 4d 56 af bb f7 29 74 bc a8 47 2b bc
       -0.016436791 -0.005350864 -0.014902583 -0.010454096
000070 a6 b6 3d 3c 99 da 40 bc 66 4b f2 bb 88 73 de bc
       0.011579191 -0.011770868 -0.007394242 -0.027154699
000080 3c d2 c3 bc 4d 62 9b ba 6e 2e 3e bc 3b da 9f 3a
       -0.023903958 -0.0011854857 -0.011607749 0.0012195775
000090 a7 f5 4c bc 4f b1 c0 ba 61 78 2a bd 1e 49 13 3c
       -0.01250974 -0.001470128 -0.04161871 0.0089896
0000a0 9a 7b ff 3b 42 6f 8c 3c b4 1d 80 bb 2c 28 fa bb
       0.007796717 0.017142896 -0.003909791 -0.0076341834
0000b0 2a 53 13 3c a7 e6 d7 bc 7c 3d 3c bc 54 8a a1 bb
       0.008991996 -0.0263551 -0.011489268 -0.00492982
0000c0 ac 84 28 39 1c 45 4e bb
       0.00016071153 -0.0031474298

fc5.weight f4 [1, 50]
000000 0b e5 dd 3b 5e ed 87 3b e5 3d e6 3a d0 dd 50 ba
       0.006771689 0.0041481694 0.0017566053 -0.0007967623
000010 95 1a 7e bb 6c d2 d1 39 10 fe 9d ba 66 3e 63 bb
       -0.0038773168 0.00040020363 -0.0012053866 -0.0034674644
000020 fa fe 4d bb f6 60 d0 ba 13 d4 68 3b 9d 21 48 3b
       -0.0031432495 -0.0015898037 0.0035526797 0.0030537613
000030 25 d2 25 bb 80 86 a5 b9 fd a4 bd 3a 3e 83 b2 3b
       -0.0025302258 -0.00031571463 0.0014468726 0.005447774
000040 c5 94 29 bb 78 53 9e 3b 7a 28 e6 b9 f7 63 98 bb
       -0.0025876027 0.0048317276 -0.00043899176 -0.0046505886
000050 a9 b6 87 bb 22 6c 7f bb f6 62 10 3a ec 02 f2 3b
       -0.004141648 -0.0038974364 0.00055079104 0.007385602
000060 4f cf 34 3b 57 ed 26 39 89 1c 53 bb cd f6 a6 b9
       0.0027589386 0.0001591941 -0.0032213053 -0.00031845868
000070 9e 8b f7 3b 1d e4 e8 bb e7 7f e3 bb 15 66 62 3b
       0.0075544855 -0.0071072713 -0.0069427374 0.003454571
000080 75 11 10 ba 49 ee 34 3b a4 2b 47 bb af ee 1f bb
       -0.00054957654 0.002760785 -0.0030391002 -0.002440374
000090 af 73 9c 3b ad 42 41 bb 35 3a 99 b9 85 d9 ca 3b
       0.0047745327 -0.0029489205 -0.00029225802 0.006190481
0000a0 42 8a 08 3b 6a 4b 11 3b 36 06 a9 3b 08 7c 23 bb
       0.0020834361 0.0022170194 0.005158211 -0.0024945755
0000b0 81 b7 c9 3b d0 d3 6a 3b e2 f5 25 3b df db fc 3a
       0.0061559086 0.0035831816 0.002532356 0.0019291601
0000c0 e2 c6 81 bb 02 31 eb bb
       -0.0039604763 -0.007177473
