tsla.pt (torch, 35150 bytes, 9 tensors)

fc1.weight f4 [50, 3]
0.104254544 -0.5271887 0.13084465 -0.34701952 0.25627804 -0.457385 -0.3923189 0.30020028
-0.0884282 0.45594224 -0.55128425 -0.4155947 -0.45603985 0.11513537 -0.49901307 -0.551249
0.3188296 -0.30198288 -0.52326536 -0.1986252 -0.08704382 -0.5017222 0.12513667 0.18894446
0.005233315 -0.091499425 -0.4305274 0.122552335 -0.5457252 0.06876218 -0.51089597 0.4179882
-0.80998105 0.13716692 -0.55889463 -0.3269399 -0.1784769 0.08468413 -0.6235828 0.28790098
-0.38844123 -0.8394445 -0.012854688 -0.10060397 -0.7679557 0.16626371 -0.27184057 -0.652563
-0.33795184 0.11000484 -0.024673998 -0.35964215 0.19321978 0.2824831 -0.052127406 -0.040851098
-0.84917164 0.43080536 -0.5442929 -0.066003606 0.3304997 -0.53447765 0.57122517 0.21723904
-0.31234768 -0.9374438 0.43016595 -0.53643966 -0.72716963 0.23491079 -0.32383904 -1.0297006
0.3763351 -0.48382187 0.10512351 0.2682038 -0.36453873 -1.4253881 -0.13980526 -0.5026547
-0.3365962 -0.51059246 0.4111354 -0.4792751 0.13464004 -0.2312849 -0.6366064 0.014980977
-0.08952966 -0.27494302 -0.51753694 0.102999926 0.026007831 0.1707828 -0.262573 -0.8131717
-0.28893805 0.16258396 -0.23730709 -0.075369105 -0.01880571 -0.6459613 0.27724877 -0.3293755
0.19021922 0.04674514 -0.14459085 -0.17549536 -0.3670075 -0.11389589 -0.32714117 -0.4115141
0.08917004 -0.37312597 -0.15579212 -0.40421718 0.39359814 -0.42546445 -0.2133767 -0.13828284
-0.2743697 0.027734935 0.05624938 0.05752523 -0.14656375 -1.0462204 -0.022666961 -0.08128391
-0.59568596 0.24320559 -0.3323385 -1.0352865 0.03643085 -0.13214558 0.039967112 -0.40622565
0.31048006 -0.4532085 0.022549331 -0.4311741 -0.38628712 0.09968844 -0.23683956 0.17017604
-0.047227122 -0.06986288 -0.0062944004 0.16937032 -0.26014832 -0.5703911
00000000: 6883 d53d d7f5 06bf 24fc 053e 8bac b1be
00000010: e036 833e 5e2e eabe 06de c8be dab3 993e
00000020: d819 b5bd 4371 e93e f720 0dbf d4c8 d4be
00000030: 0e7e e9be 18cc eb3d a47e ffbe a81e 0dbf
00000040: a23d a33e 809d 9abe b8f4 05bf 6864 4bbe
00000050: 0844 b2bd de70 00bf d423 003e a87a 413e
00000060: 3a7c ab3b 0d64 bbbd 166e dcbe b8fc fa3d
00000070: a6b4 0bbf 30d3 8c3d 14ca 02bf 8d02 d63e
00000080: eb5a 4fbf 7c75 0c3e b813 0fbf ab64 a7be
00000090: a6c2 36be e06e ad3d 1fa3 1fbf c267 933e
000000a0: c5e1 c6be d6e5 56bf 789c 52bc 7409 cebd
000000b0: bf98 44bf 0941 2a3e b02e 8bbe 5e0e 27bf
000000c0: 0608 adbe 384a e13d 2021 cabc 0423 b8be
000000d0: 68db 453e a0a1 903e 8c83 55bd 7b53 27bd
000000e0: 5063 59bf 8592 dc3e c856 0bbf e62c 87bd
000000f0: 4237 a93e 87d3 08bf d03b 123f e973 5e3e
00000100: 09ec 9fbe 51fc 6fbf b63e dc3e 1c54 09bf
00000110: ca27 3abf 748c 703e 3bce a5be 3bcd 83bf
00000120: ffae c03e 80b7 f7be ff4a d73d 0252 893e
00000130: d2a4 babe 1e73 b6bf 1c29 0fbe faad 00bf
00000140: 5656 acbe 30b6 02bf 5780 d23e 8c63 f5be
00000150: 14df 093e f3d5 6cbe a3f8 22bf c672 753c
00000160: 545b b7bd 55c5 8cbe 4d7d 04bf a0f1 d23d
00000170: 600e d53c b0e1 2e3e f86f 86be 052c 50bf
00000180: b0ef 93be 697c 263e a100 73be 1e5b 9abd
00000190: 6f0e 9abc b85d 25bf 8df3 8d3e e8a3 a8be
000001a0: d4c8 423e d577 3f3d a00f 14be 0eb5 33be
000001b0: 68e8 bbbe 4042 e9bd 0c7f a7be fab1 d2be
000001c0: c89e b63d 5e0a bfbe f887 1fbe 8ef5 cebe
000001d0: b285 c93e 7ad6 d9be 6c7f 5abe 049a 0dbe
000001e0: 2f7a 8cbe 6034 e33c c065 663d 939f 6b3d
000001f0: cf14 16be 8dea 85bf 10b0 b9bc 2e78 a6bd
00000200: e07e 18bf e30a 793e 4628 aabe 4584 84bf
00000210: 8438 153d 2c51 07be 8eb4 233d cffc cfbe
00000220: 3ef7 9e3e f20a e8be 60b9 b83c dac2 dcbe
00000230: 6dc7 c5be 7429 cc3d 1286 72be a142 2e3e
00000240: 3a71 41bd 4514 8fbd 4241 cebb 6a6f 2d3e
00000250: 2932 85be 2705 12bf

fc1.bias f4 [50]
-0.37065727 -0.1817276 -0.23568034 -0.6855816 0.080402076 0.08432126 0.48201406 0.16986859
-0.8672594 -0.5727416 -0.6833879 -0.0012170672 -0.7834925 -0.35520267 -0.973926 -0.031305965
0.018386602 0.54968965 -0.6549798 -0.98993254 -0.5256884 -0.9114942 -0.7854211 -0.8371744
-0.33839554 -1.0991334 -0.15168339 -0.70736986 -1.1276349 -1.1925937 -0.010658681 -0.56383204
-0.4777231 -0.80030197 -0.11734738 -0.21439078 -0.030851305 -0.02691263 0.17664033 -0.37012172
0.43234718 -0.7136475 -0.9226362 -1.0302373 -0.7991289 -1.293091 -0.34783673 0.24229535
-0.31618905 -0.36596528
00000000: cac6 bdbe cd16 3abe 3056 71be 4782 2fbf
00000010: d8a9 a43d a0b0 ac3d 8cca f63e 08f2 2d3e
00000020: b604 5ebf 329f 12bf 82f2 2ebf 0086 9fba
00000030: f792 48bf 20dd b5be 3753 79bf af3a 00bd
00000040: 809f 963c 76b8 0c3f c2ac 27bf 386c 7dbf
00000050: 8493 06bf af57 69bf 5b11 49bf 1051 56bf
00000060: 2e42 adbe 67b0 8cbf e452 1bbe 3116 35bf
00000070: 5756 90bf e9a6 98bf c0a1 2ebc 4c57 10bf
00000080: 1f98 f4be 97e0 4cbf d353 f0bd 4289 5bbe
00000090: e0bb fcbc e077 dcbc 34e1 343e 9880 bdbe
000000a0: 9c5c dd3e 9ab1 36bf e331 6cbf d1de 83bf
000000b0: b693 4cbf 0284 a5bf a817 b2be 461c 783e
000000c0: 88e3 a1be cd5f bbbe

fc2.weight f4 [50, 50]
-0.100548334 -0.05361708 0.15648527 -0.30805457 -0.1991155 0.2358442 0.076002195 0.08180797
-0.020484598 -0.044361845 -0.36931375 -0.43592107 -0.17897578 0.42433718 -0.13386899 -0.19708018
-0.106733665 0.27169624 0.09040715 -0.118519634 0.01756189 -0.037463836 0.6663173 0.26259017
-0.10605977 0.3893805 -0.2064401 0.10906806 0.061986763 0.08878078 0.041088253 -0.07641337
-0.19825903 -0.48634204 -0.14816225 -0.19008113 -0.043270774 0.15939075 -0.33760574 -0.14031625
-0.34248212 -0.03653179 -0.002281434 0.006951322 0.4276552 -0.029536704 0.36557335 0.018702919
0.47596586 -0.16818674 0.090569615 -0.29839808 -0.025640737 -0.2851707 -0.1451914 -0.47391194
0.04954394 -0.34037456 0.26166677 -0.36980695 -0.07891891 0.0012419415 0.03157473 0.030555904
0.4563762 0.33115166 -0.30582622 -0.33703023 -0.06561772 0.27693766 -0.25728288 -0.009856308
-0.18268743 -0.21971965 0.01559838 0.15922278 -0.0614284 0.17870694 -0.24453746 0.060432542
-0.31063932 0.3148234 -0.16590142 0.27846214 -0.032660067 0.15747371 -0.024944248 -0.19078963
-0.124996275 -0.4098639 0.058969658 -0.24374472 -0.15323657 0.15625252 -0.056010265 0.2883232
0.78537524 0.035897017 0.04555461 0.07380156 0.073129974 0.27705875 -0.2892972 -0.05963616
-0.042764343 -0.06474417 -0.012458426 -0.259189 -0.06718941 -0.26432994 0.29679936 0.07048907
0.11786039 -0.09510034 -0.07179196 -0.5782422 -0.16049606 0.03580379 -0.60357434 0.036492813
0.14098465 -0.27534395 -0.0040755873 0.31185645 0.12365742 0.14729394 0.058502153 0.10232282
0.048643354 0.13168372 -0.013804653 0.043629095 -0.2150137 -0.36880752 0.13591617 0.5569976
0.044064038 0.08589268 0.1905 0.03228648 -0.3261292 -0.02394797 0.1583766 -0.09433703
-0.2808371 -0.25074327 -0.1974053 0.32798883 0.6175524 0.118599944 -0.13618937 -0.14385003
0.29857096 0.2680344 0.19298564 0.12469855 0.16653508 -0.103856064 0.42580587 -0.31710386
-0.083482884 0.3068563 0.40914485 -0.03138797 -0.0029033825 0.17661434 0.116313934 -0.30135676
0.10238423 0.20240983 0.3106879 -0.07587578 0.512216 0.14595427 -0.044654686 -0.2515
0.0965715 -0.19995622 0.22322147 -0.1929105 -0.27475268 -0.32234362 -0.29037958 0.03983204
-0.1314616 -0.32661366 0.11051662 0.1740292 -0.046178564 -0.026502276 0.03853278 0.31454325
0.21358612 0.022275088 -0.21262513 -0.1595218 0.10497321 0.12383358 -0.55127203 0.24867815
-0.048204217 0.1547287 0.038749218 0.14437015 -0.23933357 -0.5080539 0.04281397 -0.103031866
0.12223581 -0.18711306 -0.21771006 -0.204573 0.15867236 -0.060813244 0.12118849 0.19124807
-0.09029322 0.10636729 0.11195523 0.14271052 0.108731076 0.03446708 0.07267929 0.021771548
0.05998625 -0.06671229 0.2119888 0.33688623 -0.03442247 -0.1362493 0.013720727 -0.2857429
-0.09818475 -0.55854356 0.36055043 0.57837546 0.090790756 0.34476593 -0.023985146 0.14009288
-0.28968102 0.17565249 -0.10738246 -0.16790196 0.58609575 0.090758406 -0.4279062 0.40893033
0.17224492 -0.13176182 -0.23407234 -0.16403402 0.0022560896 0.3322537 -0.31564122 0.249276
00000000: 49ec cdbd 959d 5bbd ad3d 203e 54b9 9dbe
00000010: efe4 4bbe 2481 713e 0aa7 9b3d f08a a73d
00000020: 51cf a7bc c4b4 35bd b116 bdbe 0c31 dfbe
00000030: 6d45 37be b942 d93e f414 09be 63cf 49be
00000040: 2e97 dabd c51b 8b3e 6227 b93d 6cba f2bd
00000050: f4dd 8f3c ae73 19bd c593 2a3f 3872 863e
00000060: dd35 d9bd e25c c73e 0965 53be 135f df3d
00000070: d5e5 7d3d b3d2 b53d 284c 283d 9d7e 9cbd
00000080: 6a04 4bbe d301 f9be d8b7 17be a1a4 42be
00000090: b23c 31bd 5437 233e a9da acbe 10af 0fbe
000000a0: d159 afbe 5ca2 15bd 1c84 15bb eac7 e33b
000000b0: 9ff5 da3e f5f6 f1bc 6e2c bb3e dd36 993c
000000c0: ccb1 f33e 2539 2cbe 907c b93d a2c7 98be
000000d0: 860c d2bc e501 92be 0ead 14be 96a4 f2be
000000e0: 96ee 4a3d 9345 aebe 30f9 853e 5657 bdbe
000000f0: 3da0 a1bd a4c8 a23a 8154 013d 6050 fa3c
00000100: 24aa e93e b68c a93e 4195 9cbe 3a8f acbe
00000110: 9562 86bd c6ca 8d3e 95ba 83be 5a7c 21bc
00000120: 6a12 3bbe 30fe 60be 5990 7f3c 4c0b 233e
00000130: 599c 7bbd f4fe 363e 0768 7abe 1d88 773d
00000140: 1e0c 9fbe 8830 a13e 10e2 29be 9792 8e3e
00000150: 90c6 05bd ca40 213e e157 ccbc 5b5e 43be
00000160: 0cfe ffbd aed9 d1be 2b8a 713d 3798 79be
00000170: 0cea 1cbe a900 203e 056b 65bd 199f 933e
00000180: 5a0e 493f c008 133d 7997 3a3d 4625 973d
00000190: 2bc5 953d a5da 8d3e c31e 94be 0c45 74bd
000001a0: aa29 2fbd 9798 84bd 6d1e 4cbc 6cb4 84be
000001b0: 9a9a 89bd 4156 87be 16f6 973e 935c 903d
000001c0: ca60 f13d f8c3 c2bd aa07 93bd ae07 14bf
000001d0: 1459 24be ffa6 123d d983 1abf 7d79 153d
000001e0: 485e 103e e2f9 8cbe 818c 85bb a6ab 9f3e
000001f0: 1a40 fd3d 39d4 163e f49f 6f3d a08e d13d
00000200: 413e 473d 19d8 063e e92c 62bc 6cb4 323d
00000210: 8d2c 5cbe 57d4 bcbe 9c2d 0b3e 6597 0e3f
00000220: 7e7c 343d 80e8 af3d 6f12 433e d43e 043d
00000230: 68fa a6be 882e c4bc 7a2d 223e c633 c1bd
00000240: e1c9 8fbe 6c61 80be 9d24 4abe 27ee a73e
00000250: ea17 1e3f 87e4 f23d 3a75 0bbe 6c4d 13be
00000260: 4bde 983e ce3b 893e 079e 453e f461 ff3d
00000270: 2c88 2a3e 7db2 d4bd 3a03 da3e 705b a2be
00000280: 13f9 aabd 451c 9d3e 6f7b d13e ac90 00bd
00000290: ad46 3ebb 64da 343e 0036 ee3d 6f4b 9abe
000002a0: d3ae d13d 8644 4f3e 7c12 9f3e c364 9bbd
000002b0: 9620 033f 0975 153e d5e7 36bd 9cc4 80be
000002c0: 47c7 c53d 53c1 4cbe 2b94 643e 558a 45be
000002d0: 62ac 8cbe 390a a5be a2ac 94be ec26 233d
000002e0: df9d 06be e839 a7be 8a56 e23d b634 323e
000002f0: bc25 3dbd 4d1b d9bc 8cd4 1d3d d00b a13e
00000300: 52b6 5a3e 3f7a b63c 67ba 59be af59 23be
00000310: 32fc d63d 769c fd3d 2a20 0dbf 7ca5 7e3e
00000320: c971 45bd 3371 1e3e 80b7 1e3d c5d5 133e
00000330: dc13 75be d20f 02bf b45d 2f3d 5f02 d3bd
00000340: c556 fa3d 919a 3fbe 63ef 5ebe 967b 51be
00000350: 027b 223e 4f17 79bd ac31 f83d 89d6 433e
00000360: a7eb b8bd 18d7 d93d c948 e53d b522 123e
00000370: 66ae de3d 5a2d 0d3d e1d8 943d 3f5a b23c
00000380: 24b4 753d 74a0 88bd 9813 593e 5a7c ac3e
00000390: 93fe 0cbd f084 0bbe e6cc 603c e54c 92be
000003a0: 1615 c9bd b6fc 0ebf 119a b83e 6a10 143f
000003b0: 81f0 b93d 2985 b03e 7f7c c4bc 8274 0f3e
000003c0: 1251 94be 3fde 333e 56eb dbbd 7eee 2bbe
000003d0: 5f0a 163f 8bdf b93d 8516 dbbe 515f d13e
000003e0: f960 303e 92ec 06be a9b0 6fbe 89f8 27be
000003f0: e7da 133b 281d aa3e ba9b a1be 3542 7f3e

fc2.bias f4 [50]
-0.6241146 -1.5680711 -1.2085032 -1.1920424 -0.69920444 -0.6444077 -1.0513673 -1.2756821
-1.2980466 -0.76803493 -1.0932549 -1.3267932 -0.92183614 -0.97891074 -0.97865397 -1.5077951
-1.3564128 -0.8380559 -1.1972213 -0.85331345 -1.589996 -0.8918236 -1.3076128 -0.9970762
-0.6160556 -0.83476156 -1.0883381 -0.8287826 -1.0656587 -1.1240618 -0.83025277 -0.7831252
-0.9225195 -0.7729297 -1.1557158 -0.75199103 -1.0982106 -1.4565535 -0.9916799 -0.79084146
-1.0401193 -1.1158224 -1.0086887 -1.2658683 -1.1600277 -1.2516752 -0.9692485 -0.8178577
-1.0370797 -1.0644109
00000000: f9c5 1fbf 8eb6 c8bf 3cb0 9abf d894 98bf
00000010: 10ff 32bf e7f7 24bf 3493 86bf 8d49 a3bf
00000020: 6426 a6bf f09d 44bf c7ef 8bbf 5cd4 a9bf
00000030: 74fd 6bbf e599 7abf 1189 7abf 6eff c0bf
00000040: ef9e adbf d58a 56bf 8c3e 99bf c072 5abf
00000050: fd84 cbbf 8d4e 64bf db5f a7bf 6340 7fbf
00000060: d2b5 1dbf efb2 55bf aa4e 8bbf 192b 54bf
00000070: 8167 88bf 42e1 8fbf 728b 54bf e57a 48bf
00000080: 3d2a 6cbf b9de 45bf 7fee 93bf 7c82 40bf
00000090: 2a92 8cbf 5870 babf bcde 7dbf 9674 4abf
000000a0: a122 85bf 45d3 8ebf b61c 81bf f907 a2bf
000000b0: ca7b 94bf e536 a0bf ab20 78bf 1f5f 51bf
000000c0: 07bf 84bf 9e3e 88bf

fc3.weight f4 [50, 50]
0.016900752 0.0055263205 0.08436364 -0.112780996 0.16340744 -0.12613617 0.10662452 -0.101748265
0.0068574892 0.035152603 0.15261295 -0.02010725 0.010742745 -0.037826467 -0.01703524 -0.009597313
0.07192846 0.035000823 0.0064420085 0.017269593 -0.16087762 0.09940051 0.028533967 -0.007445885
-0.032912586 -0.025069397 -0.02975849 -0.044703964 -0.12024444 -0.0008804543 0.037126683 -0.064827725
-0.04018657 -0.09827344 0.056383114 0.010962893 0.027549038 -0.08214755 0.02640507 0.109661266
-0.015220621 -0.00454373 -0.026249032 -0.016610341 -0.021536738 0.053505134 -0.020666324 0.0019465956
0.13803434 0.02384502 0.023656443 -0.020997515 -0.06300135 -0.0580045 -0.031165745 0.1410011
-0.017316928 0.057420302 0.09755991 -0.07863234 -0.0070666093 -0.12517281 0.07359595 0.036016706
-0.13149102 0.036068164 -0.14320832 -0.057488322 -0.062639326 0.016951889 -0.08836345 -0.048950158
0.028290166 -0.05277377 0.0125513775 0.0043699276 0.0405393 0.07978743 -0.05157567 0.012330281
0.108340345 -0.017075775 -0.15451047 0.14021017 0.034671947 0.062400788 0.061921142 -0.025572728
-0.08063632 0.041980155 -0.023166997 0.008301276 -0.016075036 0.057756502 0.13883832 0.042913694
-0.09834955 -0.080846556 -0.10528386 0.009299512 -0.06770239 0.1384403 -0.065197796 -0.0019977207
-0.06976261 0.046044946 -0.15511593 0.042875424 -0.077519976 -0.053604063 0.13072264 0.078931786
0.09906168 -0.03779786 -0.04667301 -0.056164123 -0.018858932 0.026092904 0.034492113 0.1233768
0.09340441 0.008594507 -0.1369315 0.033578727 -0.007846688 -0.09472335 0.030021872 -0.08193096
-0.045214698 0.11396659 -0.07988772 -0.025916211 0.034931514 -0.020344863 -0.027785804 0.027937641
0.028305251 -0.037292965 0.042710017 0.022252275 0.050443098 -0.06915349 0.078721344 -0.02783046
-0.0050422465 -0.017773684 -0.04921519 -0.00096040784 -0.033915274 -0.0015851124 0.07476918 0.007836074
-0.08870411 -0.0473362 0.12511127 -0.020407196 0.06664338 0.05027014 -0.0124429185 -0.06320491
0.035677798 0.032761145 -0.10348536 0.028600609 0.048569858 -0.019405603 0.14597197 -0.02669368
0.10947586 -0.046500914 0.027610183 -0.0146534825 -0.012793772 -0.0301046 -0.03180811 0.03190547
-0.0211312 -0.01563432 0.033838257 0.0963541 0.047104366 0.029013915 -0.003890514 -0.043503426
0.005031978 0.055396814 -0.014711297 -0.005885693 -0.03204265 0.024015158 0.09672483 -0.06653263
0.025668602 -0.015067585 -0.11823406 -0.013931247 -0.081963904 -0.13963231 0.016372964 0.11177297
-0.008857104 0.054443847 0.005004473 0.07708882 -0.001464682 -0.026469368 0.09164903 -0.016672589
-0.0021324977 -0.04011271 -0.03370612 0.011936302 0.00470004 -0.014000494 0.06290404 0.018091274
0.06518134 0.10455167 -0.09589142 0.05384712 0.020551316 -0.054483816 -0.05732205 0.05027127
-0.056320094 -0.0030844642 -0.11984003 -0.02768762 -0.05187377 -0.028634408 -0.1063346 -0.0023106919
0.068216026 -0.057125214 -0.016357807 0.06329232 0.10484348 0.02196969 0.01648079 -0.017576981
0.019692559 -0.043734085 0.0499816 0.026229642 0.032809578 0.10663759 0.029366901 0.062789686
0.08231433 -0.028940016 0.036842246 -0.050626423 0.1300088 0.006752393 0.0050361194 -0.05179472
00000000: 7273 8a3c 2316 b53b d8c6 ac3d b9f9 e6bd
00000010: 4854 273e d729 01be f55d da3d 6561 d0bd
00000020: cab4 e03b 2dfc 0f3d 9246 1c3e f6b7 a4bc
00000030: 5702 303c edef 1abd 7d8d 8bbc 0c3e 1dbc
00000040: 3a4f 933d 065d 0f3d 7c17 d33b f678 8d3c
00000050: 1abd 24be 7f92 cb3d 11c0 e93c 9cfc f3bb
00000060: 59cf 06bd 565e cdbc 14c8 f3bc 811b 37bd
00000070: b842 f6bd 4ace 66ba 2612 183d 66c4 84bd
00000080: ac9a 24bd 9643 c9bd fbf1 663d b59d 333c
00000090: 85ae e13c fa3c a8bd 724f d83c 1696 e03d
000000a0: e95f 79bc 92e3 94bb 3608 d7bc 6912 88bc
000000b0: d06d b0bc 3328 5b3d 6c4c a9bc e924 ff3a
000000c0: e058 0d3e a256 c33c 28cb c13c fb02 acbc
000000d0: da06 81bd 2096 6dbd 4e4f ffbc 9862 103e
000000e0: 3bdc 8dbc 8d31 6b3d 7dcd c73d fe09 a1bd
000000f0: 048f e7bb 4d2d 00be 79b9 963d 4186 133d
00000100: 95a5 06be 36bc 133d 34a5 12be e078 6bbd
00000110: 0c49 80bd b0de 8a3c e5f7 b4bd f67f 48bd
00000120: c7c0 e73c 4f29 58bd 4ba4 4d3c 9c31 8f3b
00000130: 890c 263d 9867 a33d 0241 53bd f204 4a3c
00000140: 8be1 dd3d 7fe2 8bbc fe37 1ebe 4193 0f3e
00000150: 2c04 0e3d f897 7f3d 06a1 7d3d e67d d1bc
00000160: a824 a5bd 62f3 2b3d b7c8 bdbc 1302 083c
00000170: cbaf 83bc 1592 6c3d a22b 0e3e 45c6 2f3d
00000180: 7d6b c9bd e192 a5bd 109f d7bd fb5c 183c
00000190: 8da7 8abd 4bc3 0d3e 6c86 85bd 31ec 02bb
000001a0: b3df 8ebd a099 3c3d b6d6 1ebe 249e 2f3d
000001b0: cbc2 9ebd ef8f 5bbd 28dc 053e fda6 a13d
000001c0: dae0 ca3d eed1 1abd 332c 3fbd 5a0c 66bd
000001d0: 0c7e 9abc c9c0 d53c 9a47 0d3d faac fc3d
000001e0: d04a bf3d facf 0c3c c537 0cbe d989 093d
000001f0: 658f 00bc 51fe c1bd 6ef0 f53c 6bcb a7bd
00000200: 0c33 39bd 5167 e93d 2c9c a3bd 3c4e d4bc
00000210: 5914 0f3d 45aa a6bc 0e9f e3bc 7bdd e43c
00000220: 6ae0 e73c 82c0 18bd b3f0 2e3d 674a b63c
00000230: 6c9d 4e3d 58a0 8dbd a838 a13d b4fc e3bc
00000240: 6e39 a5bb 1e9a 91bc de95 49bd e1c3 7bba
00000250: beea 0abd 8cc3 cfba 9520 993d e062 003c
00000260: 80aa b5bd 9ae3 41bd 2b1d 003e fe2c a7bc
00000270: 537c 883d 10e8 4d3d 62dd 4bbc 9371 81bd
00000280: e222 123d 8d30 063d 22f0 d3bd d34b ea3c
00000290: 30f1 463d 80f8 9ebc ad79 153e b4ac dabc
000002a0: e134 e03d be77 3ebd c02e e23c 2915 70bc
000002b0: f89c 51bc ec9d f6bc 3949 02bd 4faf 023d
000002c0: 571b adbc 8c13 80bc fc99 0a3d 4c55 c53d
000002d0: 82f0 403d 97ae ed3c fef7 7ebb a630 32bd
000002e0: 4ae3 a43b c5e7 623d a707 71bc c5dc c0bb
000002f0: 273f 03bd 70bb c43c ab17 c63d 4242 88bd
00000300: f646 d23c 08de 76bc b324 f2bd e33f 64bc
00000310: b1dc a7bd c6fb 0ebe 9820 863c 3ae9 e43d
00000320: 631d 11bc 8300 5f3d 90fc a33b bee0 9d3d
00000330: 93fa bfba 4ad6 d8bc 7db2 bb3d f494 88bc
00000340: 60c1 0bbb 3a4d 24bd 6e0f 0abd 7b90 433c
00000350: cb02 9a3b 5462 65bc d5d3 803d 2734 943c
00000360: cb7d 853d 301f d63d b962 c4bd cc8e 5c3d
00000370: 3c5b a83c 6c2a 5fbd 87ca 6abd 3fe9 4d3d
00000380: e6af 66bd b924 4abb b16e f5bd 26d1 e2bc
00000390: 9779 54bd b592 eabc f4c5 d9bd fa6e 17bb
000003a0: d8b4 8b3d 21fc 69bd cf00 86bc 679f 813d
000003b0: 2eb8 d63d c8f9 b33c b902 873c 9afd 8fbc
000003c0: 4a52 a13c 8322 33bd 82b9 4c3d 8cdf d63c
000003d0: 5663 063d cf64 da3d db92 f03c e197 803d
000003e0: 6a94 a83d 9d13 edbc e5e7 163d a75d 4fbd
000003f0: 0721 053e 2e43 dd3b 0806 a53b b326 54bd

fc3.bias f4 [50]
-0.22359309 -0.1822755 -0.1891099 -0.12271445 -0.07057054 -0.16228338 -0.026638249 -0.102229096
-0.112594076 -0.14171611 -0.18974625 -0.12346113 -0.08995291 -0.22628534 -0.084350444 -0.05964556
-0.039089605 -0.037857182 -0.15645638 -0.19659106 -0.14340134 -0.16196951 -0.018990686 -0.19856662
-0.12558918 -0.08103622 -0.27949503 0.0026582356 -0.059424546 -0.13213813 -0.25110742 -0.19849586
-0.08926997 -0.104941286 -0.22208971 -0.05618212 -0.18855767 -0.19450772 -0.1297893 -0.15061443
-0.120255806 -0.13522255 -0.174312 -0.15238893 -0.11561686 -0.1358927 -0.13122201 -0.122153506
-0.12181624 -0.06553935
00000000: 96f5 64be 6ea6 3abe 07a6 41be b751 fbbd
00000010: 4a87 90bd 9d2d 26be 7538 dabc 7d5d d1bd
00000020: b997 e6bd 071e 11be d74c 42be 30d9 fcbd
00000030: 3b39 b8bd 58b7 67be edbf acbd e74e 74bd
00000040: 6c1c 20bd 2210 1bbd 1a36 20be 2b4f 49be
00000050: cdd7 12be 56db 25be 5b92 9bbc 0c55 4bbe
00000060: 739a 00be 51f6 a5bd f919 8fbe cb35 2e3b
00000070: 2767 73bd 384f 07be 2791 80be 8042 4bbe
00000080: 2dd3 b6bd 75eb d6bd 7c6b 63be 391f 66bd
00000090: 4315 41be 082d 47be 7ce7 04be ab3a 1abe
000000a0: ad48 f6bd c877 0abe d87e 32be d80b 1cbe
000000b0: 88c8 ecbd 7527 0bbe 105f 06be 9e2b fabd
000000c0: cb7a f9bd 7f39 86bd

fc4.weight f4 [50, 50]
-0.055853948 -0.008199193 0.061632313 0.055523884 0.024229221 -0.018285155 -0.011528205 -0.0019203317
0.0376587 -0.010956411 -0.054524608 0.05081018 -0.020823061 -0.005885934 0.016434135 -0.103343345
0.0022029916 -0.031085024 0.02196002 0.08640742 -0.037140306 -0.0029017418 0.02266762 -0.0060781175
0.009195341 -0.0413138 -0.02787098 -0.018174663 0.050243367 0.029633075 0.016062083 -0.032735657
0.020020522 0.052966334 -0.044413738 0.026085204 0.05986412 0.013963361 0.0600128 0.011313973
0.016541725 0.026309311 0.004733456 -0.05870036 0.06572114 -0.03731529 -0.02101868 0.060024932
0.06883383 -0.013136759 -0.0045805047 -0.03457187 0.049773682 0.02829073 -0.0114371935 -0.035231993
0.028455017 -0.029542375 0.0020644146 0.03267443 -0.031966828 0.01654766 -0.002059886 -0.009760782
-0.00065658975 -0.03138835 -0.03239012 0.016630128 -0.06690699 -0.062195282 -0.0017950945 -0.014437153
0.013323564 0.009529322 -0.006187122 -0.01633077 0.029847257 0.0032521058 -0.0024898807 0.028128618
0.022994116 -0.0037873401 0.056451946 0.0013862248 -0.0012336025 -0.015073738 0.039405935 0.011234514
-0.028124718 -0.02694334 -0.0417535 0.047458347 -0.016997064 -0.03794669 -0.07055131 0.04173113
0.023916563 0.06153303 0.028881604 0.01584516 -0.028104505 -0.015727744 0.009126101 0.017729802
-0.015220622 0.0069115083 -0.024286605 0.02189035 0.05234568 0.029970946 0.0048360433 -0.06615509
0.020650495 -0.05108532 -0.00012430866 0.0005716231 -0.02612629 0.040627364 0.004021067 -0.006267332
-0.011392325 0.011363419 -0.010133811 0.03368625 0.02472452 0.014002406 -0.05492077 0.05538108
0.021336008 0.06134443 -0.008382676 0.0275237 0.013669698 -0.0061591677 -0.012943868 0.086874954
0.024991963 0.002910792 -0.023059571 0.013211303 -0.0063492274 -0.035527684 -0.04078291 -0.042225517
0.0046769367 -0.019285565 -0.020704275 -0.045271266 0.033656787 0.0050355713 0.008357965 -0.0352219
0.020351611 -0.043587968 -0.004528983 0.02287844 0.013862502 -0.009475457 -0.0066420636 -0.0023722684
-0.016753826 0.0126723815 0.009263529 -0.04779903 0.015116927 0.007038213 0.016138723 -0.006468421
-0.03191158 -0.055375393 0.037677445 -0.025725521 -0.02206337 -0.041704047 -0.017164294 0.08231318
-0.029612936 0.0031569481 0.057547733 0.0752512 0.09857233 -0.012798682 0.0057055666 0.0121276425
-0.009788175 -0.0042424616 0.0067820954 0.093715765 0.009584171 0.015106355 -0.02632693 -0.008764535
0.07712999 -0.03170064 0.019102884 0.0037508502 0.036195047 -0.048680782 -0.013902194 0.004324556
-0.022361573 0.008548705 0.011405904 0.0034228633 0.012018611 0.07308051 -0.08959212 0.021859154
0.020199068 -0.04515746 0.02961337 -0.028231809 0.02726571 -0.013093815 0.0524204 0.027315937
0.00072099606 0.019242737 0.010709984 -0.006620085 0.011855771 -0.017765278 -0.05765993 0.0027028336
0.051786873 0.020185675 0.03994844 0.0028468105 0.028238704 0.033315543 -0.013800421 -0.056052852
0.016864905 -0.020103531 0.024689065 0.012890098 0.03106212 0.008125583 -0.0069839973 -0.04755691
0.0432377 0.004102569 -0.07019018 0.07326803 -0.007983394 -0.043827817 0.017636089 -0.03371236
0.034399673 0.00755366 -0.028703272 -0.020567043 0.011780819 -0.0015298813 0.049446147 -0.05122498
00000000: 1cc7 64bd e855 06bc 2a72 7c3d 036d 633d
00000010: 5c7c c63c c0ca 95bc cce0 3cbc a4b3 fbba
00000020: 0240 1a3d 8582 33bc 3255 5fbd 561e 503d
00000030: 2095 aabc cbde c0bb e1a0 863c ada5 d3bd
00000040: 1160 103b 05a6 febc 80e5 b33c 60f6 b03d
00000050: 6f20 18bd 262b 3ebb 72b1 b93c f22a c7bb
00000060: 0ea8 163c a938 29bd ae51 e4bc 08e3 94bc
00000070: fdcb 4d3d 10c1 f23c a194 833c d315 06bd
00000080: 1402 a43c 3af3 583d 2eeb 35bd a3b0 d53c
00000090: 1434 753d 95c6 643c fbcf 753d 3e5e 393c
000000a0: 8382 873c a086 d73c 1b1b 9b3b ca6f 70bd
000000b0: ce98 863d ebd7 18bd 5e2f acbc b4dc 753d
000000c0: c0f8 8c3d 903b 57bc 0f18 96bb 3c9b 0dbd
000000d0: 7ddf 4b3d f6c1 e73c 1163 3bbc 6c4f 10bd
000000e0: 7f1a e93c da02 f2bc 214b 073b a0d5 053d
000000f0: a6ef 02bd f58e 873c 27ff 06bb b0eb 1fbc
00000100: fe1e 2cba 1291 00bd 81ab 04bd e83b 883c
00000110: 8806 89bd 7bc0 7ebd 6049 ebba cf89 6cbc
00000120: 144b 5a3c e020 1c3c 57bd cabb 1bc8 85bc
00000130: 3c82 f43c 4821 553b 442d 23bb fd6d e63c
00000140: 285e bc3c 0635 78bb 283a 673d fcb1 b53a
00000150: d5b0 a1ba d7f7 76bc 1e68 213d f810 383c
00000160: cf65 e6bc 48b8 dcbc b805 2bbd af63 423d
00000170: 6d3d 8bbc fd6d 1bbd 357d 90bd 43ee 2a3d
00000180: abec c33c 0f0a 7c3d 1d99 ec3c b5cd 813c
00000190: 6b3b e6bc 78d7 80bc a485 153c 173e 913c
000001a0: ea5f 79bc ef79 e23b b4f4 c6bc 6453 b33c
000001b0: 6c68 563d a185 f53c ac77 9e3b 527c 87bd
000001c0: 3a2b a93c d73e 51bd da58 02b9 fad8 153a
000001d0: cd06 d6bc e168 263d 28c3 833b 315e cdbb
000001e0: e0a6 3abc a22d 3a3c 4908 26bc 98fa 093d
000001f0: 148b ca3c 596a 653c 9af4 60bd 45d7 623d
00000200: dac8 ae3c 4c44 7b3d 7e57 09bc 6279 e13c
00000210: def6 5f3c d8d2 c9bb 8412 54bc 7feb b13d
00000220: f2bb cc3c fcc2 3e3b 6de7 bcbc 3974 583c
00000230: 2e0d d0bb 7a85 11bd fb0b 27bd aaf4 2cbd
00000240: fd40 993b c3fc 9dbc 039c a9bc 5d6e 39bd
00000250: b3db 093d 6f01 a53b d9ef 083c d744 10bd
00000260: 6cb8 a63c 4c89 32bd dd67 94bb 916b bb3c
00000270: 8c1f 633c f23e 1bbc aba5 d9bb 0f78 1bbb
00000280: 523f 89bc d29f 4f3c 0fc6 173c eac8 43bd
00000290: fdac 773c cfa0 e63b 5b35 843c 0cf5 d3bb
000002a0: b8b5 02bd 4fd1 62bd aa53 1a3d 54be d2bc
000002b0: 3ebe b4bc ddd1 2abd 229c 8cbc d093 a83d
000002c0: d496 f2bc cde4 4e3b 2cb7 6b3d 4d1d 9a3d
000002d0: 4ae0 c93d 90b1 51bc c3f5 ba3b 05b3 463c
000002e0: 955e 20bc 5904 8bbb 573c de3b 0dee bf3d
000002f0: ed06 1d3c a580 773c 93ab d7bc 2099 0fbc
00000300: 54f6 9d3d 88d8 01bd a77d 9c3c d3d0 753b
00000310: 4241 143d 8065 47bd 07c6 63bc 01b5 8d3b
00000320: 9e2f b7bc de0f 0c3c d4df 3a3c 1e52 603b
00000330: b5e9 443c 3cab 953d 137c b7bd f811 b33c
00000340: 8478 a53c 07f7 38bd bd97 f23c 6546 e7bc
00000350: 575c df3c 7187 56bc c6b6 563d acc5 df3c
00000360: 3a01 3d3a f2a2 9d3c ee78 2f3c 4ced d8bb
00000370: b53e 423c 7d88 91bc d22c 6cbd 0622 313b
00000380: 791e 543d 6e5c a53c faa0 233d 8e91 3a3b
00000390: db54 e73c e175 083d 291b 62bc ad97 65bd
000003a0: 4528 8a3c 29b0 a4bc b940 ca3c fd30 533c
000003b0: fd75 fe3c 2a21 053c 04da e4bb 09cb 42bd
000003c0: 041a 313d d86e 863b debf 8fbd 8d0d 963d
000003d0: c8cc 02bc cc84 33bd 8f79 903c f915 0abd
000003e0: ace6 0c3d b184 f73b 2023 ebbc 377c a8bc
000003f0: 5604 413c 4c86 c8ba 0b88 4a3d 49d1 51bd

fc4.bias f4 [50]
-0.050488465 0.002926094 -0.024760319 0.0018171382 -0.009009829 0.013108943 -0.03199999 -0.019629491
0.005240089 -0.04813593 -0.01875828 0.017146483 0.001000968 -0.009701678 -0.004756774 -0.03518377
-0.0026305823 -0.01676463 0.015620054 0.022665346 -0.0016907227 -0.003035721 -0.0403167 -0.0012753154
0.0079197325 0.005179502 0.007429216 -0.021084493 -0.019329526 0.0018308267 -0.04559204 -0.008070649
-0.0112573225 -0.021311905 -0.0048113167 -0.054660972 -0.020877184 -0.028835343 -0.0015157083 -0.008531771
-0.014022406 -0.012130853 -0.038736455 0.0030763529 -0.00952866 -0.021994434 -0.045360383 0.01766529
-0.011774313 -0.0064061093
00000000: fecc 4ebd b6c3 3f3b 27d6 cabc 0a2d ee3a
00000010: f69d 13bc e4c6 563c 6c12 03bd 07ce a0bc
00000020: 0db5 ab3b 2e2a 45bd f7aa 99bc c876 8c3c
00000030: ea32 833a c9f3 1ebc b6de 9bbb db1c 10bd
00000040: d965 2cbb fa55 89bc 41eb 7f3c adac b93c
00000050: 3d9b ddba f2f2 46bb 2023 25bd 7c28 a7ba
00000060: c4c1 013c d0b8 a93b c870 f33b 63b9 acbc
00000070: f458 9ebc 5af8 ef3a b8be 3abd c13a 04bc
00000080: a270 38bc 4e96 aebc 40a8 9dbb 2fe4 5fbd
00000090: a106 abbc 1938 ecbc bbaa c6ba d7c8 0bbc
000000a0: 3cbe 65bc 7cc0 46bc 1eaa 1ebd a39c 493b
000000b0: 191e 1cbc ac2d b4bc cfcb 39bd ccb6 903c
000000c0: 0ce9 40bc 57ea d1bb

fc5.weight f4 [1, 50]
-0.003277164 -0.0015165376 0.0075760395 0.0040223454 0.003163289 0.0030900107 -0.005830708 -0.0016909323
5.8022168e-05 -0.0018058333 0.0025458746 -0.005360619 0.0070581655 -0.0069268034 -0.0055726096 -0.0053715957
0.0032949485 0.008164783 -0.0049877865 -0.0022877366 0.0003873286 -0.00082025945 0.00088510907 0.013823094
-0.009172677 -0.006346513 -0.0004939699 -0.0032059243 -0.0054420065 0.00066512387 0.009014992 -0.0040981495
-0.004959186 -0.0028670817 0.0051165237 0.0020828093 -0.0042752647 -0.010960077 -0.0014268782 0.0046802987
0.002035585 -0.000909268 -0.0028435923 -0.008680787 0.008689847 0.0038382036 0.002932811 -0.0024941384
0.005651882 0.0009886402
00000000: b0c5 56bb 8fc6 c6ba 6d40 f83b e1cd 833b
00000010: 2f4f 4f3b c781 4a3b 860f bfbb 46a2 ddba
00000020: d45c 7338 b6b1 ecba b0d8 263b 22a8 afbb
00000030: 2f48 e73b 3dfa e2bb 709a b6bb 3604 b0bb
00000040: 10f0 573b 95c5 053c 9670 a3bb daed 15bb
00000050: 5d12 cb39 ae06 57ba aa06 683a 427a 623c
00000060: ff48 16bc 69f6 cfbb c27d 01ba 7c1a 52bb
00000070: dc52 b2bb b55b 2e3a 9eb3 133c c549 86bb
00000080: ab80 a2bb a6e5 3bbb 83a8 a73b be7f 083b
00000090: 8517 8cbb e591 33bc 1606 bbba 315d 993b
000000a0: 7367 053b f15b 6eba 905b 3abb dc39 0ebc
000000b0: dc5f 0e3c 5f8a 7b3b 6734 403b b374 23bb
000000c0: 6c33 b93b 4395 813a
