xom.pt (torch, 35136 bytes, 9 tensors)

fc1.weight f4 [50, 3]
-0.33832133 0.43354207 -9.065628 -0.12287289 -0.44444942 -0.35175613 -0.35516018 -0.3591501
0.13971454 0.19305617 -0.19964105 -9.179458 -0.5494626 -0.30605638 0.52595365 -0.38550514
-0.5139793 -0.3637736 0.14898635 -0.090322696 -8.973883 -0.5926171 0.59328175 -12.770972
0.076398976 -0.31053424 -0.29815006 -2.2954085 2.4311044 -0.07570542 -1.6881708 1.8760298
-66.76853 -2.2903042 2.4290447 -0.1599079 0.20494609 -0.15781403 -7.612483 -0.2813707
0.2825775 -9.223188 -1.387191 1.5821072 -71.41761 0.44022143 -0.4529805 -7.333556
0.0005491875 0.035778992 -9.818823 0.15404242 -0.47375974 0.10380775 0.11109306 -0.08895915
-8.852474 2.2838554 -2.4204147 -1.6812687 -0.037449878 0.04170331 -9.779469 -0.023223579
-0.39858115 0.17367804 -0.5410542 0.5786407 -11.464543 -0.23127961 -0.34113044 -0.29465586
-0.02850002 -0.34748906 -0.1967656 -0.51759654 -0.23054215 -0.40778738 0.1802953 -0.09511334
-7.786248 -0.5018342 0.17307496 -0.22249568 0.45447567 -0.46125856 -7.7005296 -0.005819378
0.020443378 -7.689042 -0.38489097 -0.35167772 0.14478523 -0.34429276 -0.37824404 -0.06591362
-0.2202596 -0.21795878 -0.083339155 0.16298147 -0.15951243 -8.991168 0.3453075 -0.28062302
-10.063006 -0.31889936 -0.123099744 -0.02489072 -0.016296126 -0.27042407 -0.034971535 0.6298893
-0.53434944 -9.251019 0.4453887 -0.44653118 -9.360983 -0.5518355 0.28428861 -0.37063777
-0.13493823 0.1595146 -9.555805 -0.08957359 -0.35547668 -0.2446354 0.14926346 -0.37786955
-0.5127811 0.27873564 -0.28935388 -8.62397 -2.3296874 2.4571302 -0.1797129 0.6746296
-0.63337016 -6.7483883 -0.5686353 0.16826075 -0.55595744 -1.3574262 1.558516 -71.59852
0.01624537 0.00336249 -7.619133 -0.12019414 -0.4780943 -0.2068798
00000000: 7438 adbe 3af9 dd3e d00c 11c1 c8a4 fbbd
00000010: e08e e3be 6119 b4be 8ed7 b5be 86e2 b7be
00000020: 5411 0f3e 84b0 453e b46e 4cbe 0fdf 12c1
00000030: 95a9 0cbf 6cb3 9cbe e6a4 063f ee60 c5be
00000040: 2694 03bf 8940 babe e18f 183e 1bfb b8bd
00000050: 0695 0fc1 c1b5 17bf 50e1 173f e755 4cc1
00000060: 1177 9c3d 58fe 9ebe 20a7 98be f9e7 12c0
00000070: 3797 1b40 710b 9bbd fb15 d8bf bf21 f03f
00000080: 7d89 85c2 5894 12c0 7875 1b40 e6be 23be
00000090: 63dd 513e 009a 21be 7699 f3c0 d20f 90be
000000a0: 00ae 903e 2e92 13c1 7a8f b1bf 7d82 ca3f
000000b0: d1d5 8ec2 b464 e13e 0fed e7be 7eac eac0
000000c0: 59f7 0f3a fe8c 123d e619 1dc1 4cbd 1d3e
000000d0: a390 f2be 2899 d43d c284 e33d 3730 b6bd
000000e0: bca3 0dc1 b02a 1240 13e8 1ac0 d033 d7bf
000000f0: 0b65 19bd 17d1 2a3d b478 1cc1 603f bebc
00000100: d412 ccbe a8d8 313e 8782 0abf cc21 143f
00000110: c56e 37c1 90d4 6cbe a6a8 aebe 22dd 96be
00000120: e078 e9bc 16ea b1be ec7c 49be 3581 04bf
00000130: 3e13 6cbe 82c9 d0be 559f 383e c8ca c2bd
00000140: f228 f9c0 3578 00bf 903a 313e e8d5 63be
00000150: 09b1 e83e 152a ecbe bd6a f6c0 7bb0 bebb
00000160: df78 a73c a20c f6c0 6e10 c5be 1a0f b4be
00000170: 9442 143e 2447 b0be 34a9 c1be b8fd 86bd
00000180: bc8b 61be 9630 5fbe b8ad aabd 9de4 263e
00000190: 3a57 23be d3db 0fc1 25cc b03e d2ad 8fbe
000001a0: 1302 21c1 c746 a3be b81b fcbd a0e7 cbbc
000001b0: 747f 85bc 0675 8abe 503e 0fbd 6d40 213f
000001c0: 20cb 08bf 2c04 14c1 fd09 e43e bc9f e4be
000001d0: 96c6 15c1 1745 0dbf 478e 913e 3cc4 bdbe
000001e0: 3f2d 0abe cc57 233e 94e4 18c1 5c72 b7bd
000001f0: 0a01 b6be b481 7abe 85d8 183e 1e78 c1be
00000200: 9f45 03bf 70b6 8e3e 3126 94be c8fb 09c1
00000210: 9919 15c0 9f41 1d40 a906 38be 87b4 2c3f
00000220: 8c24 22bf ccf2 d7c0 1592 11bf 8c4c 2c3e
00000230: 3a53 0ebf 24c0 adbf 747d c73f 7132 8fc2
00000240: 0315 853c 395d 5c3b f0cf f3c0 5828 f6bd
00000250: c7c8 f4be 4cd8 53be

fc1.bias f4 [50]
-10.401427 -0.07378483 -0.06112522 -11.135565 0.3758555 0.32113034 -11.689396 -11.58209
0.44536078 -13.025525 -6.1963367 -12.393883 -10.987947 -10.639309 -5.205777 -9.971716
-10.928115 0.521165 -12.051889 13.091401 -10.892248 -0.2793713 -11.452691 -0.45406953
-0.51974136 -0.11367077 -11.031832 -0.21890458 -10.750199 -10.283437 0.52943456 -0.024505973
-0.31497377 -11.344751 -11.67134 0.17328501 0.4896114 -11.35416 -10.978253 0.19636953
-10.942389 -0.31518576 0.37273368 -10.46494 -12.568043 -8.060139 0.19486856 -4.681631
-9.863477 -0.50179243
00000000: 3f6c 26c1 801c 97bd 705e 7abd 462b 32c1
00000010: 2270 c03e 326b a43e c407 3bc1 3e50 39c1
00000020: 5406 e43e 8d68 50c1 6448 c6c0 584d 46c1
00000030: a2ce 2fc1 9c3a 2ac1 ba95 a6c0 268c 1fc1
00000040: 8fd9 2ec1 126b 053f 8ad4 40c1 6176 5141
00000050: a646 2ec1 c109 8fbe 393e 37c1 cd7b e8be
00000060: c50d 05bf 38cc e8bd 6282 30c1 8628 60be
00000070: d100 2cc1 f588 24c1 0689 073f c0c0 c8bc
00000080: 3e44 a1be 1a84 35c1 cfbd 3ac1 a071 313e
00000090: 58ae fa3e a4aa 35c1 eda6 2fc1 1815 493e
000000a0: 0614 2fc1 0760 a1be f3d6 be3e 6570 27c1
000000b0: b416 49c1 54f6 00c1 a08b 473e eccf 95c0
000000c0: cdd0 1dc1 7875 00bf

fc2.weight f4 [50, 50]
-0.009620516 -0.06574663 -0.14236033 0.1380979 0.016470669 0.049205266 -0.017849002 0.014661478
0.012798967 0.001082908 0.00088318065 -0.04849798 -1.5360682e-05 0.079329215 0.030813124 0.15235588
0.08180645 0.07236169 0.09348576 0.0904299 -0.051389772 0.024757378 -0.14863287 0.07494869
0.07612716 0.06363866 0.056951173 0.14794235 0.0054897573 -0.021303441 -0.10233067 -0.027299797
-0.19347213 -0.006629372 0.115078464 0.0121616265 0.16078271 0.08629508 0.059509926 0.02283115
-0.0012894248 -0.1532583 0.16340879 0.00139673 -0.04897618 0.062093984 -0.0190762 -0.04899649
0.11009832 0.083658 0.019640714 0.068654664 -0.07994588 -0.094056375 0.011908479 -0.02925733
-0.12566018 0.00027052168 -0.03500236 -0.15211692 -0.2571502 -0.013292519 -0.17015858 0.08998085
-0.28287938 -0.0061697327 0.0152746225 0.009289302 -0.11225796 0.08493215 -0.07832847 0.035610095
-0.18284798 -0.07291963 0.02612317 0.027925497 -0.06876752 -0.08737248 -0.0522459 -0.094613224
0.017964156 -0.0093084425 0.028882533 -0.07844763 -0.0587704 -0.06908017 0.006352295 -0.0613307
-0.012557999 -0.09900634 -0.02921435 -0.08725778 0.07378516 -0.019441675 -0.018135339 -0.006787626
0.013377934 -0.29821745 0.0009487157 -0.022499753 -0.05560164 0.02630074 -0.08318803 0.01654612
-0.1041462 -0.04658364 0.112931564 0.050584093 -0.024412302 -0.6520103 0.037613165 -0.6645421
-0.06297568 -0.013043564 0.019610181 -0.0109846555 0.017011968 -0.079805166 -0.11650828 0.15154736
0.042031355 0.048695523 0.06801428 -0.09034905 0.012523225 -0.033814684 0.104897656 0.013975292
0.028532665 -0.04577154 -0.19155848 0.059262715 0.026228826 0.005349902 0.050185937 0.077661924
-0.03336857 0.08605869 -0.05821451 -0.048779316 -0.0782831 0.053106535 -0.045951035 0.07585801
-0.68764836 0.04699963 0.17084971 0.0016553364 0.0066168415 0.06781197 -0.063074894 0.14646813
-0.090292566 -0.02454439 0.10843321 -0.16539198 -0.03208485 -0.04303726 -0.06708609 -0.06626578
0.0056112036 0.025135173 0.09533725 0.07985203 0.03422617 0.039440718 -0.1167534 -0.20131291
-0.03198442 0.153279 0.01258577 0.020442795 -0.21553607 0.17160223 0.15944374 -0.015875647
0.0154948635 -0.05871647 0.03980551 0.014645667 -0.16752057 0.123918034 0.016629592 -0.085642815
-0.022934979 0.08748957 -0.01279498 -0.1482065 0.059149362 -0.07778583 -0.06849085 0.100260995
-0.0853966 0.21325137 0.043987583 -0.0054869675 0.11546745 0.0017792892 0.09177532 0.09559208
-0.031585403 0.017731918 0.084685504 0.0612867 -0.098989815 -0.002537665 -0.14358072 -0.06797127
-0.20921394 -0.023255065 -0.024820229 0.011690622 -0.09663708 -0.0017890967 0.0212337 -0.09429621
0.006824854 -0.058823843 0.0889061 0.18489937 -0.068324186 0.0452709 0.12707517 -0.2355436
0.05120909 -0.048814863 0.05665336 0.11563006 -0.009411778 -0.17563057 0.18000253 0.061947227
-0.0340912 0.10580392 -0.15931079 -0.10647804 -0.16634111 0.038997572 0.07038214 0.06981538
-0.10438969 -0.09607232 -0.042145714 -0.101132736 0.11264227 -0.075888894 0.16532204 -0.026688334
0.021831578 0.010613729 0.0125757735 -0.11651797 -0.021694653 -0.09572745 -0.17078997 -0.019775078
00000000: 5e9f 1dbc 2ba6 86bd e8c6 11be 8969 0d3e
00000010: 7fed 863c 768b 493d 1238 92bc b236 703c
00000020: c2b2 513c 5df0 8d3a 4085 673a d1a5 46bd
00000030: d0da 80b7 5b77 a23d ce6b fc3c 2e03 1c3e
00000040: 248a a73d 5e32 943d 7675 bf3d 5033 b93d
00000050: 157e 52bd fccf ca3c 3733 18be b37e 993d
00000060: 8ee8 9b3d fc54 823d a245 693d 337e 173e
00000070: 6ce3 b33b 8e84 aebc be92 d1bd d3a3 dfbc
00000080: 8f1d 46be 343b d9bb 42ae eb3d 8f41 473c
00000090: 39a4 243e 7abb b03d aec0 733d 6408 bb3c
000000a0: eb01 a9ba beef 1cbe a254 273e 7b12 b73a
000000b0: 3f9b 48bd 4356 7e3d b145 9cbc 8bb0 48bd
000000c0: 3a7b e13d e354 ab3d 90e5 a03c d19a 8c3d
000000d0: aaba a3bd a1a0 c0bd c81b 433c 11ad efbc
000000e0: 10ad 00be ced4 8d39 a25e 0fbd 8ac4 1bbe
000000f0: 31a9 83be dec8 59bc 0d3e 2ebe e147 b83d
00000100: 91d5 90be 782b cabb 6942 7a3c 2832 183c
00000110: 80e7 e5bd e8f0 ad3d ad6a a0bd e4db 113d
00000120: 803c 3bbe e356 95bd 4200 d63c 03c4 e43c
00000130: fcd5 8cbd 58f0 b2bd ccff 55bd 94c4 c1bd
00000140: 9129 933c 7082 18bc 109b ec3c 27a9 a0bd
00000150: 3bb9 70bd e779 8dbd ea26 d03b e635 7bbd
00000160: 11c0 4dbc d6c3 cabd ef52 efbc 35b4 b2bd
00000170: ad1c 973d 2644 9fbc 9090 94bc bc6a debb
00000180: 1f2f 5b3c f5af 98be 3cb3 783a 6751 b8bc
00000190: 8cbe 63bd a674 d73c 7c5e aabd bb8b 873c
000001a0: 9a4a d5bd 7dce 3ebd aa48 e73d 4431 4f3d
000001b0: 4ffc c7bc 26ea 26bf 4310 1a3d 6e1f 2abf
000001c0: 65f9 80bd acb4 55bc 88a5 a03c fcf8 33bc
000001d0: af5c 8b3c e470 a3bd e59b eebd 3b2f 1b3e
000001e0: 1229 2c3d f574 473d 124b 8b3d ec08 b9bd
000001f0: 362e 4d3c 4481 0abd 95d4 d63d a0f8 643c
00000200: 56bd e93c f07a 3bbd e827 44be 76bd 723d
00000210: d6dd d63c 3b4e af3b c58f 4d3d 370d 9f3d
00000220: 7bad 08bd 8a3f b03d 5772 6ebd d2cc 47bd
00000230: e452 a0bd 3d86 593d 2737 3cbd 725b 9b3d
00000240: b909 30bf af82 403d 3af3 2e3e dff7 d83a
00000250: 17d2 d83b 01e1 8a3d 692d 81bd befb 153e
00000260: 4feb b8bd 5111 c9bc 3b12 de3d 845c 29be
00000270: 676b 03bd d747 30bd 6f64 89bd 5ab6 87bd
00000280: 30de b73b 47e8 cd3c 2d40 c33d 7689 a33d
00000290: be30 0c3d 978c 213d 681c efbd f924 4ebe
000002a0: 1802 03bd 2cf5 1c3e 8c34 4e3c a677 a73c
000002b0: 7db5 5cbe 7fb8 2f3e 3845 233e a50d 82bc
000002c0: 2bde 7d3c ae80 70bd 1a0b 233d 61f4 6f3c
000002d0: 838a 2bbe bdc8 fd3d c83a 883c 8065 afbd
000002e0: 23e2 bbbc bb2d b33d 09a2 51bc 72c3 17be
000002f0: 9a46 723d 2d4e 9fbd ee44 8cbd a355 cd3d
00000300: 6ae4 aebd 915e 5a3e 532c 343d 05cc b3bb
00000310: 337a ec3d 0a37 e93a b3f4 bb3d c8c5 c33d
00000320: b25f 01bd 8742 913c 986f ad3d c307 7b3d
00000330: 2cbb cabd f44e 26bb d306 13be 8534 8bbd
00000340: 2e3c 56be 6881 bebc cb53 cbbc 068a 3f3c
00000350: a9e9 c5bd 2080 eaba 4cf2 ad3c 5f1e c1bd
00000360: 06a3 df3b 45f1 70bd 6714 b63d 4356 3d3e
00000370: 8ded 8bbd fb6d 393d fe1f 023e 5732 71be
00000380: 9fc0 513d 18f2 47bd 5b0d 683d 74cf ec3d
00000390: dc33 1abc 80d8 33be 9552 383e 60bc 7d3d
000003a0: 37a3 0bbd baaf d83d 5e22 23be 2911 dabd
000003b0: 5355 2abe ebbb 1f3d 8324 903d 5efb 8e3d
000003c0: 43ca d5bd 91c1 c4bd fca0 2cbd ae1e cfbd
000003d0: feb0 e63d a36b 9bbd 2e4a 293e 7ea1 dabc
000003e0: 23d8 b23c 35e5 2d3c 9e0a 4e3c f9a0 eebd
000003f0: fcb8 b1bc c10c c4bd 91e3 2ebe 58ff a1bc

fc2.bias f4 [50]
0.74021894 -0.9692444 -0.75829357 -0.66479445 -0.5480965 -0.7314002 -1.3145654 -0.75750625
-0.5807242 -0.17802227 -0.509915 -0.8893434 -0.48905566 -0.4570692 -0.5723287 0.32845923
-1.6067349 -0.25956678 -0.50902015 -1.5558392 0.30815226 -0.9796782 -0.15742962 -0.7414311
-1.2587239 -0.13446763 -0.32770374 -0.49809393 0.0115276165 -0.8137795 0.054593507 -0.41017824
-1.9228537 0.24490273 -0.749727 0.47535312 -0.64013654 -0.53725445 -0.657708 -1.2457774
-0.44279468 -0.12293149 -0.22098115 -0.53138787 -0.72702056 -0.5931399 -0.7431894 -0.84602267
-0.24546114 -0.4959003
00000000: fd7e 3d3f 6720 78bf 871f 42bf f82f 2abf
00000010: 0d50 0cbf 0b3d 3bbf ae43 a8bf eeeb 41bf
00000020: 57aa 14bf 784b 36be ca89 02bf 02ac 63bf
00000030: 8165 fabe f904 eabe 2284 12bf cf2b a83e
00000040: 7da9 cdbf f0e5 84be 254f 02bf bd25 c7bf
00000050: 22c6 9d3e 31cc 7abf 3b35 21be 6ece 3dbf
00000060: dd1d a1bf e2b1 09be c9c8 a7be 2b06 ffbe
00000070: 54de 3c3c da53 50bf 719d 5f3d e202 d2be
00000080: 1220 f6bf c8c7 7a3e 1cee 3fbf 7c61 f33e
00000090: fddf 23bf 8289 09bf 8d5f 28bf a275 9fbf
000000a0: fcb5 e2be 81c3 fbbd e248 62be 0909 08bf
000000b0: 051e 3abf 04d8 17bf a941 3ebf f194 58bf
000000c0: 2a5a 7bbe a5e6 fdbe

fc3.weight f4 [50, 50]
0.0043190867 -0.044205345 -0.06578916 -0.04161448 0.019719861 -0.1301231 -0.007937082 -0.0076279673
-0.043657057 -0.020311277 -0.011620432 0.01424304 -0.018638002 -0.028130488 -0.0101506915 0.05920801
0.07723957 -0.00806882 0.01214269 -0.04529612 0.00011696291 0.027970217 0.033116803 0.03632988
-0.070141055 -0.028666176 0.037973538 -0.025599992 -0.01566444 -0.023486663 -0.00025624072 0.060996275
-0.009443081 -0.023803428 0.07118117 -0.031738997 0.004906134 0.000400331 -0.0012420645 0.029188558
0.01455236 -0.008653808 -0.03038484 0.011948458 -0.02858191 0.014456688 -0.02412719 0.036800947
0.024047717 0.00046465243 -0.023355674 -0.0060411803 -0.033225417 -0.008536932 -0.08066789 -0.022949547
-0.010252877 -0.032697935 0.010039931 0.040935837 0.025582008 0.008849634 0.041993678 0.04638502
-0.026997315 0.04227566 0.07981803 0.031526733 0.049624376 0.037275225 -0.020646466 -0.0781745
0.05537929 0.026054343 -0.011577825 -0.012768762 -0.03719863 0.019282628 -0.050165296 0.075155936
-0.047794018 -0.054934774 -0.013901952 0.030302772 -0.01603374 0.052101873 -0.027887758 0.11532079
0.023001822 0.01278139 -0.0154863 0.054488387 0.02824016 0.06140277 -0.022376252 -0.0325053
-0.011987544 0.02349979 4.81632e-05 -0.01675976 0.07771612 0.017726745 -0.008151491 -0.025236333
-0.036090795 -0.005576083 -0.014943999 -0.053822365 -0.0071585537 0.01979056 0.011651475 -0.020744972
0.039374005 -0.0734729 0.016969051 0.060870223 -0.060801897 -0.08346674 -0.046209764 -0.010988072
0.04766526 -0.045585006 0.04935833 0.01626802 0.010524598 0.022972133 -0.02497454 0.06343425
-0.059701547 -0.05353215 0.041187666 0.026062699 -0.033524167 0.036720984 -0.029085698 -0.0024477611
0.02292875 0.0760596 0.07198278 -0.03197204 -0.0446769 0.0059468504 -0.00889379 0.06830079
0.013245999 -0.07134071 0.04730942 0.023819584 0.030223904 0.02401906 -0.031600308 0.027528245
0.031084506 0.03067777 0.08650443 -0.01974702 0.012931743 -0.012688192 -0.049945775 -0.011639769
-0.0062657855 -0.023820627 0.012619967 0.025992874 -0.009688975 0.05083109 -0.008715109 -0.008228823
-0.068060994 0.023728468 -0.005934227 -0.012105609 -0.015423694 -0.08183129 0.012283738 -0.049477816
0.06681371 0.056619953 0.02218895 0.07802902 0.009796685 0.014428287 -0.041935813 0.0059805713
0.041711856 0.009696461 -0.092285216 0.002637905 0.09026997 -0.046052713 0.034146115 0.032448947
0.015866479 0.04141175 0.050053474 0.016629158 -0.009444694 -0.034755103 0.03962516 -0.021836257
-0.023154976 -0.05789697 0.001952474 -0.013534773 0.06976465 -0.002747804 -0.045467943 -0.016344465
0.05949445 0.04570444 0.027767135 0.03261019 0.038664423 -0.017494746 -0.052448247 0.05242377
-0.034197472 0.031350426 -0.031836204 0.013991027 -0.028793497 0.028906345 -0.06990306 0.018331755
0.0012621009 -0.04033074 -0.039694533 -0.017382603 -0.03432115 0.02285484 -0.03255455 -0.0048746997
-0.026136812 0.0012733691 0.01532392 -0.0072344574 7.644962e-05 -0.012557483 0.037437797 0.02090684
-0.05203004 0.026831748 0.07381433 -0.057464406 -0.04258192 -0.018707758 0.043341804 0.004322018
0.026965873 0.044521123 -0.081567585 -0.04301547 -0.0015651194 0.036728583 -0.016805038 0.04154964
00000000: 2087 8d3b aa10 35bd 78bc 86bd f273 2abd
00000010: 8c8b a13c fd3e 05be 890a 02bc 07f4 f9bb
00000020: bed1 32bd d663 a6bc a063 3ebc a45b 693c
00000030: b9ae 98bc e971 e6bc 164f 26bc 1984 723d
00000040: c82f 9e3d 1633 04bc 22f2 463c 6d88 39bd
00000050: fc49 f538 cc21 e53c 7ca5 073d a4ce 143d
00000060: 1da6 8fbd 54d5 eabc 248a 1b3d 13b7 d1bc
00000070: b652 80bc 1a67 c0bc 0c58 86b9 3bd7 793d
00000080: 27b7 1abc 68ff c2bc 6fc7 913d c000 02bd
00000090: a3c3 a03b 84e3 d139 c5cc a2ba d81c ef3c
000000a0: 066d 6e3c b4c8 0dbc a1e9 f8bc 77c3 433c
000000b0: 9c24 eabc bfdb 6c3c 62a6 c5bc 97bc 163d
000000c0: b8ff c43c 989c f339 6654 bfbc 18f5 c5bb
000000d0: 6017 08bd 7dde 0bbc 3535 a5bd b000 bcbc
000000e0: affb 27bc 45ee 05bd 867e 243c 56ac 273d
000000f0: 5c91 d13c 0efe 103c 9001 2c3d 38fe 3d3d
00000100: 7929 ddbc 3e29 2d3d a377 a33d 2d22 013d
00000110: ee42 4b3d e8ad 183d c722 a9bc f419 a0bd
00000120: 65d5 623d eb6f d53c ebb0 3dbc 1234 51bc
00000130: 975d 18bd 9af6 9d3c 207a 4dbd 5beb 993d
00000140: a9c3 43bd 4903 61bd 03c5 63bc 853d f83c
00000150: 3159 83bc c668 553d de74 e4bc 4e2d ec3d
00000160: 516e bc3c 0969 513c 40ba 7dbc 372f 5f3d
00000170: e857 e73c 7981 7b3d 674e b7bc 4724 05bd
00000180: 6767 44bc a282 c03c d802 4a38 c44b 89bc
00000190: a129 9f3d ae37 913c d58d 05bc 6dbc cebc
000001a0: f1d3 13bd 93b7 b6bb add7 74bc d774 5cbd
000001b0: 4d92 eabb d01f a23c d4e5 3e3c 5cf1 a9bc
000001c0: a346 213d f678 96bd ae02 8b3c 0e53 793d
000001d0: 690b 79bd 9cf0 aabd 7346 3dbd 5007 34bc
000001e0: a63c 433d 58b7 3abd f62b 4a3d 8344 853c
000001f0: 5d6f 2c3c 0e30 bc3c 6897 ccbc d1e9 813d
00000200: 9c89 74bd 8744 5bbd 66b4 283d 7181 d53c
00000210: a350 09bd be68 163d 2145 eebc 9e6a 20bb
00000220: 13d5 bb3c 23c5 9b3d b56b 933d 1df5 02bd
00000230: 20ff 36bd ccdd c23b 42b7 11bc 49e1 8b3d
00000240: bf05 593c 141b 92bd 86c7 413d 4a21 c33c
00000250: 1f98 f73c 9fc3 c43c 536f 01bd ea82 e13c
00000260: efa4 fe3c f24f fb3c 3c29 b13d 81c4 a1bc
00000270: a9df 533c 22e2 4fbc f193 4cbd bbb4 3ebc
00000280: 3851 cdbb 7a23 c3bc fac3 4e3c 02ef d43c
00000290: 82be 1ebc 4334 503d d1c9 0ebc 2fd2 06bc
000002a0: 9063 8bbd 3462 c23c e773 c2bb 9b56 46bc
000002b0: a9b3 7cbc 2a97 a7bd bb41 493c 40a9 4abd
000002c0: a0d5 883d 53ea 673d 9ac5 b53c aecd 9f3d
000002d0: 4682 203c 9f64 6c3c e3c4 2bbd abf8 c33b
000002e0: 0dda 2a3d e8dd 1e3c 0800 bdbd b4e0 2c3b
000002f0: 76df b83d c5a1 3cbd ccdc 0b3d 30e9 043d
00000300: 6bfa 813c 5e9f 293d df04 4d3d df39 883c
00000310: ebbd 1abc 5e5b 0ebd fe4d 223d f3e1 b2bc
00000320: 81af bdbc 6025 6dbd 28ea ff3a f4c0 5dbc
00000330: c5e0 8e3d 8014 34bb 983c 3abd d4e4 85bc
00000340: 74b0 733d 9434 3b3d e777 e33c 4392 053d
00000350: 965e 1e3d 2451 8fbc f9d3 56bd 4fba 563d
00000360: a612 0cbd 4e69 003d ae66 02bd 9f3a 653c
00000370: 57e0 ebbc 00cd ec3c 5629 8fbd 7a2c 963c
00000380: 146d a53a d931 25bd bc96 22bd f665 8ebc
00000390: 5694 0cbd 133a bb3c eb57 05bd f2bb 9fbb
000003a0: de1c d6bc 2de7 a63a 2e11 7b3c 070f edbb
000003b0: 9453 a038 e7bd 4dbc 6058 193d d244 ab3c
000003c0: 741d 55bd 41ce db3c f82b 973d cc5f 6bbd
000003d0: 616a 2ebd 0341 99bc 2d87 313d b79f 8d3b
000003e0: 89e7 dc3c c85b 363d e80c a7bd fd30 30bd
000003f0: b124 cdba b670 163d b8aa 89bc f52f 2a3d

fc3.bias f4 [50]
-0.084212855 -0.1486124 -0.08571321 -0.04884205 -0.07678203 -0.14484106 -0.03717607 -0.016751125
-0.09602743 -0.07835099 -0.0768438 -0.06835034 -0.04967347 -0.095615484 -0.12158871 -0.045424234
-0.06263773 -0.09391732 -0.061459314 -0.18494214 -0.09883937 -0.09983463 -0.033409473 -0.117665894
-0.10245057 -0.065522894 -0.094175965 -0.15624325 -0.087677546 -0.009346058 -0.097315475 -0.109871075
-0.11904032 -0.06698206 -0.06588115 -0.070252255 -0.08567892 -0.16096519 -0.101178765 -0.08368117
-0.08092352 -0.017090986 -0.06812486 -0.05903186 -0.07189667 -0.06947441 -0.12894228 -0.11716829
-0.09427685 -0.11581178
00000000: ca77 acbd d92d 18be 688a afbd 9a0e 48bd
00000010: e63f 9dbd 3751 14be ef45 18bd a839 89bc
00000020: 07aa c4bd 7c76 a0bd 4860 9dbd 43fb 8bbd
00000030: 6976 4bbd 0dd2 c3bd 8003 f9bd c30e 3abd
00000040: 3648 80bd b957 c0bd c3bc 7bbd 7961 3dbe
00000050: 4c6c cabd 1976 ccbd 5fd8 08bd d1fa f0bd
00000060: 9bd1 d1bd de30 86bd 54df c0bd 3bfe 1fbe
00000070: 4990 b3bd 3520 19bc 564d c7bd 1604 e1bd
00000080: 69cb f3bd e42d 89bd b2ec 86bd 6ae0 8fbd
00000090: 6e78 afbd 0fd4 24be d036 cfbd 0961 abbd
000000a0: 3bbb a5bd 6502 8cbc 0c85 8bbd 64cb 71bd
000000b0: 903e 93bd 9948 8ebd 7209 04be eef5 efbd
000000c0: 3914 c1bd ba2e edbd

fc4.weight f4 [50, 50]
0.0072442535 0.021574184 0.0034404346 0.004016177 -0.011937806 -0.03822644 -0.043826036 -0.03373638
0.03607243 0.0085794795 -0.009225427 -0.02766291 -0.02332354 0.03043001 -0.02217889 0.0077262446
-0.018363219 -0.004488101 0.013665779 -0.00857221 -0.017742772 -0.01149671 0.02756417 -0.014465339
-0.010246126 0.012511842 0.0035811428 0.010231836 -0.0003347994 -0.0049904836 0.03531227 -0.024996439
0.006516678 0.015265149 -0.021939954 0.011207569 0.03077838 0.038380377 -0.009213019 -0.004718947
-0.012811297 -0.016253456 -0.0056209536 0.0019977922 -0.0073571065 0.06279565 -0.017361864 0.0007966915
0.0044351253 0.005952952 0.017883629 0.036021963 0.017192028 -0.028344024 0.014607608 -0.003650117
-0.011985707 0.0017658633 0.0020749557 0.012822623 0.015212501 0.010674081 0.027961334 0.02137284
0.018131943 0.023039011 0.029858893 -0.058609184 0.013820497 0.029805338 -0.022016158 -0.031720612
0.0014463107 0.042695526 0.0026456995 -0.024632614 0.010900299 -0.023929082 -0.02631381 0.023420712
0.03467498 -0.023929816 0.0063816747 -0.0040571606 -0.06372889 -0.022416374 -0.021592477 0.01731268
-0.011726942 -0.013353379 -0.029115906 0.023053914 0.013532015 -0.0113009345 0.01959319 0.01181305
-0.017147267 -0.0026780225 0.005563338 -0.0075362404 0.015922483 0.013193012 -0.02487204 -0.05222058
-0.019582558 0.033408586 0.030283729 -0.060971398 -0.008394749 -0.015804658 0.006746124 0.009197673
0.00860346 0.0077954843 -0.033237852 0.02605033 -0.056797564 0.029155625 -0.012830792 0.013246004
0.06826144 -0.040016517 0.05084583 0.03528305 0.028938575 0.002475143 -0.0015433017 0.0047996435
0.017024156 0.02004444 -0.027482722 0.011555261 0.015244003 -0.010189105 0.019098798 -0.019607266
-0.023955692 0.04223732 0.02317845 0.010288071 -0.010270847 -0.0058282893 0.013244838 -0.020534962
-0.024712248 -0.0024626222 0.032893844 0.031858094 0.017717946 0.0181041 0.00912718 0.013744346
-0.006002627 -0.03665285 -0.015289868 -0.013449447 -0.000608048 -0.022649154 -0.0009802927 0.010986293
0.022187391 -0.014402005 -0.0010183983 0.019763308 -0.041027028 0.0056890864 -0.012079129 -0.0014169142
0.02675853 0.022707831 0.06741166 -0.046650026 0.05705631 0.040502384 -0.0028226722 0.0025821328
-0.0012127517 0.025867304 0.03116224 -0.01929437 0.018974993 0.013284132 0.0356916 0.018819295
0.014948156 -0.027046964 0.0023162763 -0.054093968 0.059399955 -0.017450154 -0.0627811 -0.023189314
0.050437614 -0.02483237 0.009439232 0.016990563 0.04891954 0.033856038 0.015757283 0.019432703
-0.0013277971 -0.0049489336 0.038284812 -0.03805199 0.020397678 0.01725403 -0.025700869 0.023116862
0.00698347 -0.0149024045 -0.03948857 0.024553472 0.018901814 -0.029554613 0.00018650724 -0.0573099
-0.011240574 0.004254217 -0.016798917 -0.034379184 0.001346831 -0.00045881246 -0.003584126 0.017987201
-0.033117585 -0.0094933985 -0.0019717617 -0.0028817817 0.003070347 0.0011278576 0.004033493 -0.02341605
-0.01535577 -0.015543244 -0.016393438 0.023178646 -0.0066614007 0.01211603 -0.012573123 -0.005098392
-0.01853001 -0.019215181 -0.004355853 -0.02558151 0.064219765 0.045639265 -0.0094966125 -0.00936448
0.04553622 -0.0089810835 -0.005977075 0.02873379 0.0099387 -0.007489984 0.015187716 -0.027151816
00000000: 3461 ed3b 58bc b03c ea78 613b 229a 833b
00000010: ca96 43bc 5493 1cbd ee82 33bd 292f 0abd
00000020: afc0 133d f290 0c3c 3f26 17bc 549d e2bc
00000030: 0211 bfbc 5b48 f93c 81b0 b5bc 702c fd3b
00000040: 766e 96bc ec10 93bb 6ee6 5f3c 7472 0cbc
00000050: 4a59 91bc b25c 3cbc 41ce e13c 0700 6dbc
00000060: 5edf 27bc 78fe 4c3c 9bb1 6a3b 6ea3 273c
00000070: 0488 afb9 3687 a3bb 99a3 103d 55c5 ccbc
00000080: db89 d53b ad1a 7a3c 6bbb b3bc f49f 373c
00000090: f122 fc3c be34 1d3d 34f2 16bc 66a1 9abb
000000a0: 79e6 51bc f825 85bc fa2f b8bb 64ed 023b
000000b0: e213 f1bb 019b 803d 783a 8ebc 10d9 503a
000000c0: 8754 913b fb10 c33b b080 923c c48b 133d
000000d0: 4cd6 8c3c ba31 e8bc c054 6f3c cd36 6fbb
000000e0: b35f 44bc 8a74 e73a fbfb 073b fb15 523c
000000f0: db3d 793c 57e2 2e3c 2b0f e53c 1816 af3c
00000100: 7189 943c 4fbc bc3c a39a f43c 2f10 70bd
00000110: 5e6f 623c 532a f43c 3b5b b4bc 79ed 01bd
00000120: 2292 bd3a 81e1 2e3d 7963 2d3b 56ca c9bc
00000130: 2b97 323c ec06 c4bc 0f90 d7bc cbdc bf3c
00000140: 5a07 0e3d 7608 c4bc 5e1d d13b eef1 84bb
00000150: 4b84 82bd 8ba2 b7bc b5e2 b0bc 52d3 8d3c
00000160: 5c22 40bc 22c8 5abc 7b84 eebc 90db bc3c
00000170: 62b5 5d3c 8e27 39bc e681 a03c 868b 413c
00000180: 6d78 8cbc c381 2fbb a94c b63b 91f2 f6bb
00000190: de6f 823c 8127 583c 73c0 cbbc 3fe5 55bd
000001a0: 9a6b a0bc 71d7 083d 9515 f83c 25bd 79bd
000001b0: 218a 09bc c578 81bc 970e dd3b d6b1 163c
000001c0: 87f5 0c3c 4371 ff3b 6a24 08bd 8067 d53c
000001d0: 90a4 68bd c7d7 ee3c 3e38 52bc c405 593c
000001e0: a7cc 8b3d 5ce8 23bd b843 503d f684 103d
000001f0: 9710 ed3c 0236 223b 9d48 caba 5446 9d3b
00000200: 3e76 8b3c 3d34 a43c 7223 e1bc 4752 3d3c
00000210: fcc1 793c 34f0 26bc 1575 9c3c 6b9f a0bc
00000220: ba3e c4bc 0a01 2d3d bce0 bd3c 4c8f 283c
00000230: 0e47 28bc 3cfb bebb e100 593c f038 a8bc
00000240: 5771 cabc f263 21bb b2bb 063d a27d 023d
00000250: 3a25 913c 0d4f 943c 2b8a 153c f72f 613c
00000260: afb1 c4bb 4d21 16bd 5b82 7abc 125b 5cbc
00000270: 6965 1fba b88a b9bc 2a7d 80ba daff 333c
00000280: 55c2 b53c 63f6 6bbc c77b 85ba a9e6 a13c
00000290: f50b 28bd 846b ba3b 8ae7 45bc c0b7 b9ba
000002a0: b434 db3c c605 ba3c 200f 8a3d 1914 3fbd
000002b0: e1b3 693d d4e5 253d 95fc 38bb 0039 293b
000002c0: 32f5 9eba abe7 d33c f447 ff3c 3a0f 9ebc
000002d0: 7271 9b3c b0a5 593c 5b31 123d ec2a 9a3c
000002e0: 1ce9 743c 9891 ddbc abcc 173b a391 5dbd
000002f0: 5e4d 733d a0f3 8ebc 6193 80bd 84f7 bdbc
00000300: ac97 4e3d 416d cbbc 02a7 1a3c cb2f 8b3c
00000310: db5f 483d a1ac 0a3d 6b15 813c 5531 9f3c
00000320: 7a09 aeba aa2a a2bb 89d0 1c3d 67dc 1bbd
00000330: 0819 a73c 5358 8d3c a18a d2bc 935f bd3c
00000340: 98d5 e43b 3729 74bc c4be 21bd 5d24 c93c
00000350: fad7 9a3c 841c f2bc 2891 4339 c9bd 6abd
00000360: 622a 38bc f566 8b3b e29d 89bc 30d1 0cbd
00000370: 2688 b03a c48c f0b9 a8e3 6abb e559 933c
00000380: 4ea6 07bd 338a 1bbc ac38 01bb 46dc 3cbb
00000390: e037 493b 9fd4 933a 642b 843b 04d3 bfbc
000003a0: c496 7bbc 17a9 7ebc 884b 86bc 25e1 bd3c
000003b0: e147 dabb 5082 463c 80ff 4dbc 6910 a7bb
000003c0: 3fcc 97bc 2869 9dbc 8bbb 8ebb 5190 d1bc
000003d0: a785 833d 3df0 3a3d ae97 1bbc 7a6d 19bc
000003e0: 3084 3a3d 6525 13bc 57db c3bb 2063 eb3c
000003f0: eed5 223c 8a6e f5bb e6d5 783c 7c6d debc

fc4.bias f4 [50]
-0.015500809 -0.008440265 -0.00921215 0.0019841553 -0.023519568 0.016461967 4.3997017e-05 0.008018003
-0.010754366 -0.0008857421 -0.022204109 0.0014526325 -0.013393695 0.007831164 -0.0006974457 0.003858694
-0.0003521875 -0.007475398 0.0052055195 -0.00090470235 0.007878688 -0.0295154 -0.01857345 -0.020463472
0.00077543047 -0.040117327 0.0033932847 -0.010954042 -0.015665932 -0.038174137 -0.013814788 -0.0065706293
0.0133436695 -0.00025135267 -5.5388562e-05 -0.015032331 -0.04276294 0.0081819175 -0.032230705 -0.005741123
0.006109701 -0.027077422 -0.0034519427 0.020079812 -0.016498314 -0.0032591028 -0.020791093 -0.0021299147
-0.013493874 -0.003281359
00000000: 1bf7 7dbc 0a49 0abc 8fee 16bc 9a08 023b
00000010: 1cac c0bc 3fdb 863c 7089 3838 f15d 033c
00000020: 1533 30bc 2531 68ba 64e5 b5bc 4266 be3a
00000030: 3a71 5bbc 484e 003c cad4 36ba 25e2 7c3b
00000040: cea5 b8b9 2ff4 f4bb 1093 aa3b 8c29 6dba
00000050: 9d15 013c 48ca f1bc 5927 98bc 03a3 a7bc
00000060: 4246 4b3a 1152 24bd df61 5e3b 9578 33bc
00000070: d755 80bc 7c5c 1cbd 6c57 62bc 6f4e d7bb
00000080: 689f 5a3c fcc7 83b9 0451 68b8 2b4a 76bc
00000090: 3128 2fbd 730d 063c 5804 04bd 0820 bcbb
000000a0: e333 c83b 78d1 ddbc fd39 62bb 6b7e a43c
000000b0: 7927 87bc ac96 55bb 1552 aabc 0a96 0bbb
000000c0: 6915 5dbc 120c 57bb

fc5.weight f4 [1, 50]
0.002996475 -0.000978916 -0.0008073068 -0.012563269 -0.005928754 0.0076764342 0.0019456152 0.0042266035
0.0007015179 -0.0025997579 0.005729434 0.0005659007 -0.0033044864 0.0017007457 -0.003371208 -0.0017049849
-0.0017820181 0.008078482 -0.0069261133 0.0012195613 0.0014103055 0.0037309942 -0.0019769655 -0.0016746656
0.00024460783 -0.00862357 0.0038790468 -0.0009533903 -0.014068976 0.001841971 -0.003359398 -0.0053568934
0.003731808 0.0016163108 -0.0019351249 0.0085784085 -0.0012717977 0.001994605 -0.0021523514 0.004634471
-0.0034078772 -0.00200543 0.0050389334 -0.0036977483 0.005506831 -0.0026735058 -0.0027054339 0.0013310408
-0.0021942302 -0.0034766255
00000000: 8260 443b f84e 80ba 71a1 53ba 2bd6 4dbc
00000010: fe45 c2bb 998a fb3b 0304 ff3a 527f 8a3b
00000020: 12e6 373a b360 2abb fabd bb3b f458 143a
00000030: 1590 58bb 8eeb de3a 7cef 5cbb cd79 dfba
00000040: 9b92 e9ba 9c5b 043c 73f4 e2bb b0d9 9f3a
00000050: 00da b83a b283 743b fa8f 01bb 7480 dbba
00000060: b53e 8039 e049 0dbc 9b37 7e3b f1ec 79ba
00000070: 9081 66bc 4a6e f13a 5929 5cbb e188 afbb
00000080: 5991 743b 64da d33a 04a4 fdba 748c 0c3c
00000090: 73b2 a6ba ebb7 023b 770e 0dbb c3dc 973b
000000a0: b156 5fbb 886d 03bb a31d a53b ec55 72bb
000000b0: a672 b43b fc35 2fbb a64d 31bb 5176 ae3a
000000c0: 13cd 0fbb 19d8 63bb
